model-2.pth (torch, 948980 bytes, 6 tensors)

fc1.weight f4 [128, 24]
-0.024406862 0.13667682 -0.09977816 0.13830803 -0.027484732 -0.042978477 0.027964782 -0.016517796
0.09116052 0.15712267 -0.023343194 0.10817112 0.07036896 0.026079958 -0.20388244 0.14740282
-0.051782943 0.18911526 -0.0072843535 0.009407791 -0.14792691 0.058705408 -0.15990596 0.19825177
0.18121186 0.019603502 0.14878957 0.20292193 -0.16695571 -0.07924407 0.13971393 0.12386231
0.045198202 -0.15961725 -0.01691947 -0.038097225 0.09488635 0.00061561307 0.12041949 -0.08288387
-0.17535245 -0.14287858 -0.03660169 -0.040751014 0.08137771 -0.11925834 -0.07355619 0.101161376
-0.04732826 -0.17735206 0.08591281 -0.06825463 0.12420266 -0.07492483 -0.10160587 -0.017891932
0.20212474 -0.13897458 0.08475293 0.15005977 0.1990236 -0.07122818 -0.15081112 0.032204114
0.03621138 -0.18658216 0.055642016 0.1722346 -0.19776915 -0.09218684 -0.06846856 -0.004017752
0.078916125 -0.0022489016 0.050767433 0.022643631 0.021915354 -0.13980462 -0.08405054 0.15654095
0.0058051203 0.07293252 -0.18542844 -0.00066620245 0.11405822 -0.1048777 0.14523612 0.13376872
0.16418485 -0.014531063 -0.18429992 -0.08334894 -0.088008195 0.15853533 0.18858483 0.1847991
-0.15277252 0.029657396 -0.046867065 0.11651827 -0.14504556 0.17206988 -0.11320932 -0.18615355
0.09426538 0.10738208 -0.16950569 0.14475128 -0.14466755 -0.04150567 -0.20218149 -0.016838973
0.054521482 -0.029663406 0.070937954 0.0005369429 -0.036929898 0.1157512 -0.17542301 -0.037187543
-0.13679668 -0.03865366 0.11263513 0.12412226 -0.18213865 -0.08418182 0.11231935 0.13995808
0.043174505 -0.0021903065 -0.18394592 -0.17125167 0.1602838 0.12868425 0.08823595 0.09314679
-0.10765362 0.014358514 0.08961265 0.08664126 -0.1802929 -0.085043155 -0.07678174 0.081076846
-0.17090046 -0.04491664 0.17693351 -3.842259e-05 0.09329107 0.023574071 -0.16083398 -0.13344333
0.11783033 0.12457426 0.06798457 0.092159025 0.011373743 -0.039853618 0.124345355 0.046751775
-0.13557339 -0.034679707 0.074810386 0.11485269 -0.14881538 -0.054236196 -0.15090714 -0.008480807
0.10005376 0.15139425 0.1913626 0.10154718 -0.16033351 -0.005173812 -0.13732831 0.1148066
0.19067201 -0.12518372 0.11836564 -0.06515972 -0.057569936 -0.0051106424 -0.019301571 -0.1653401
0.043402195 -0.09347153 -0.17781837 0.09396622 0.12082744 0.033905853 0.08404862 -0.053601824
-0.045193408 0.02059385 0.040944997 -0.16372205 -0.081335485 0.08372121 0.17040968 0.09948939
-0.13359629 -0.0052691996 -0.084318824 -0.011445017 0.15842247 -0.0045340843 -0.1632239 -0.06771262
0.055260517 0.13498884 0.06383265 -0.041608986 0.066151604 -0.095040984 0.08949331 -0.07028652
0.047873963 -0.11495934 -0.028490946 -0.020695176 0.031245327 0.14973417 -0.08488012 -0.03945732
0.14305401 0.13665488 0.1733464 -0.00094146293 -0.08635181 -0.19761765 -0.169459 -0.13981219
0.17639597 -0.12927951 -0.014550822 0.17300348 -0.1931401 -0.037291568 0.06227545 0.039925743
0.120790474 -0.1448683 0.040952787 -0.12273574 -0.031157702 -0.10649853 0.07522936 0.14287986
0.12388496 0.086233646 -0.022677308 -0.053195626 0.16366343 0.07638099 -0.0066815396 -0.013201262
00000000: e6f0 c7bc 02f5 0b3e 7e58 ccbd 9fa0 0d3e
00000010: a927 e1bc 330a 30bd 6616 e53c 5450 87bc
00000020: 5eb2 ba3d c4e4 203e 3a3a bfbc d288 dd3d
00000030: 9a1d 903d a3a5 d53c 8fc6 50be c4f0 163e
00000040: 5a1a 54bd 6ea7 413e 96b1 eebb 2323 1a3c
00000050: 277a 17be 1575 703d 63be 23be 8302 4b3e
00000060: 9a8f 393e 8697 a03c 4b5c 183e c4ca 4f3e
00000070: 70f6 2abe b74a a2bd 2b11 0f3e 86ab fd3d
00000080: c021 393d b472 23be b39a 8abc d60b 1cbd
00000090: c653 c23d 1861 213a 7e9e f63d 05bf a9bd
000000a0: 988f 33be c34e 12be a7eb 15bd 89ea 26bd
000000b0: 5ba9 a63d b73d f4bd a1a4 96bd b22d cf3d
000000c0: 47db 41bd c79b 35be 0ef3 af3d 15c9 8bbd
000000d0: f75d fe3d 3072 99bd bd16 d0bd 1a92 92bc
000000e0: caf9 4e3e 5a4f 0ebe f292 ad3d 45a9 193e
000000f0: d8cc 4b3e 14e0 91bd 3b6e 1abe 76e8 033d
00000100: 6252 143d 650f 3fbe e2e8 633d 445e 303e
00000110: ff83 4abe 74cc bcbd 3f39 8cbd 59a7 83bb
00000120: c79e a13d 4f62 13bb 83f1 4f3d 237f b93c
00000130: d487 b33c f128 0fbe b122 acbd 454c 203e
00000140: e138 be3b a55d 953d f4e0 3dbe 17a4 2eba
00000150: 5b97 e93d 1fca d6bd c7b8 143e abfa 083e
00000160: 1320 283e b213 6ebc 1eb9 3cbe d9b2 aabd
00000170: a43d b4bd 1657 223e 621c 413e fa3b 3d3e
00000180: 6670 1cbe 11f4 f23c aef7 3fbd 21a1 ee3d
00000190: d386 14be 1633 303e 4ada e7bd 099f 3ebe
000001a0: 350e c13d 23eb db3d e692 2dbe ae39 143e
000001b0: bb23 14be d901 2abd aa08 4fbe e3f1 89bc
000001c0: eb51 5f3d ac00 f3bc eb47 913d a1c1 0c3a
000001d0: ce43 17bd f70e ed3d 17a2 33be f751 18bd
000001e0: 6e14 0cbe 4d53 1ebd 3fad e63d d033 fe3d
000001f0: 8e82 3abe 8567 acbd b007 e63d 2c51 0f3e
00000200: c0d7 303d 3f8b 0fbb 525c 3cbe 995c 2fbe
00000210: 7021 243e cec5 033e 0db5 b43d bfc3 be3d
00000220: 8079 dcbd f93f 6b3c d686 b73d f970 b13d
00000230: b49e 38be 1b2b aebd bf3f 9dbd 9e0b a63d
00000240: 8800 2fbe 83fa 37bd 0f2e 353e f127 21b8
00000250: 630f bf3d 691e c13c aab1 24be 5ea5 08be
00000260: 0751 f13d ca20 ff3d 7f3b 8b3d dfbd bc3d
00000270: f058 3a3c 8c3d 23bd c7a8 fe3d ca7e 3f3d
00000280: c0d3 0abe 4f0c 0ebd 3036 993d e337 eb3d
00000290: 0f63 18be c626 5ebd 6787 1abe 15f3 0abc
000002a0: fce8 cc3d 1807 1b3e 8ff4 433e f8f7 cf3d
000002b0: 782e 24be 1589 a9bb cb9f 0cbe b91f eb3d
000002c0: 863f 433e 2930 00be af69 f23d 7672 85bd
000002d0: 74ce 6bbd 2d77 a7bb 541e 9ebc ea4e 29be
000002e0: 80c6 313d 006e bfbd 0516 36be 5d71 c03d
000002f0: 6074 f73d dde0 0a3d af21 ac3d 968d 5bbd
00000300: b91c 39bd 6fb4 a83c f1b5 273d c1a6 27be
00000310: 3893 a6bd 0776 ab3d e07f 2e3e 18c1 cb3d
00000320: 77cd 08be 40a9 acbb 59af acbd e183 3bbc
00000330: 8039 223e a892 94bb 2b24 27be eaac 8abd
00000340: da58 623d 843a 0a3e b1ba 823d 2f6e 2abd
00000350: 7e7a 873d d9a4 c2bd 4548 b73d 61f2 8fbd
00000360: 7d17 443d cd6f ebbd d865 e9bc ee88 a9bc
00000370: 33f6 ff3c ea53 193e a1d5 adbd 009e 21bd
00000380: c07c 123e 42ef 0b3e b881 313e 82cc 76ba
00000390: 38d9 b0bd 485c 4abe a986 2dbe ed2a 0fbe
000003a0: 25a1 343e d961 04be 9266 6ebc d327 313e
000003b0: 85c6 45be 0bbf 18bd 8b14 7f3d 2d89 233d
000003c0: ff60 f73d 5b58 14be 1cbe 273d e05c fbbd
000003d0: 703e ffbc e71b dabd da11 9a3d 194f 123e
000003e0: 66b7 fd3d 449b b03d c3c5 b9bc a8e3 59bd
000003f0: 6397 273e a36d 9c3d d1f0 dabb 1b4a 58bc

fc1.bias f4 [128]
-0.15745273 -0.19951697 0.0137046 0.105733365 0.18001007 0.022305444 -0.026017642 -0.16742277
0.13037324 -0.12301358 -0.04710006 0.10571001 0.052328598 -0.13140014 0.1003882 0.07540994
0.15294027 -0.16779594 -0.06596757 0.0013829456 0.14053433 -0.0054552048 0.021915305 -0.002154658
0.1930699 -0.046942696 -0.17550354 0.069338 0.108187355 -0.16042504 0.15192403 0.15110248
0.068787456 0.03069663 -0.010576237 0.16954738 -0.024008375 -0.051491868 0.06871178 -0.016915819
-0.12766333 0.036994044 0.032100018 0.07765463 0.19723813 0.084241904 -0.036088884 -0.058280595
-0.08636761 -0.024340186 -0.06315511 0.012512235 0.17741376 0.20256644 -0.15533093 0.1276267
-0.12723202 0.046119273 0.03761642 -0.1499356 0.05595283 -0.13018855 -0.059246004 -0.14617819
-0.009738849 -0.1451208 0.050524414 -0.04925501 0.102912895 -0.14282924 -0.013253968 -0.18719932
-0.10897644 0.08602382 0.07624794 0.01023861 -0.08978821 0.10278646 0.14147112 -0.05529079
-0.10869712 0.12073913 0.09717749 -0.045905236 -0.0345422 0.030016607 -0.08552554 0.11405637
-0.09216116 -0.028103143 0.022638788 -0.07008631 0.18332967 -0.17624548 0.18359154 0.16967094
0.1775891 0.11858583 0.074158564 0.022910861 -0.12648533 -0.13778968 -0.08979023 -0.09247098
0.008462338 0.15915403 -0.0055371355 -0.14043203 -0.09184926 -0.0014518336 -0.1823263 0.03813611
-0.17947695 -0.1101973 -0.072887845 0.16601707 0.19951792 0.0059738243 -0.17975883 0.118736066
0.063525945 -0.19234599 0.14458229 0.06558291 0.10904664 -0.10259763 0.12828968 0.111783646
00000000: 4a3b 21be 2d4e 4cbe 4289 603c bc8a d83d
00000010: 8f54 383e e8b9 b63c f322 d5bc e070 2bbe
00000020: 9080 053e 8bee fbbd feeb 40bd 7d7e d83d
00000030: 8356 563d c28d 06be 5498 cd3d 8770 9a3d
00000040: 609c 1c3e b3d2 2bbe 011a 87bd f443 b53a
00000050: 3be8 0f3e 93c1 b2bb ba87 b33c 2a35 0dbb
00000060: 1eb4 453e fc46 40bd 33b7 33be 1501 8e3d
00000070: 5591 dd3d 7646 24be f991 1b3e 9cba 1a3e
00000080: 70e0 8c3d 8077 fb3c f447 2dbc d49d 2d3e
00000090: 36ad c4bc 23e9 52bd c3b8 8c3d 0b93 8abc
000000a0: 2dba 02be 1187 173d 4f7b 033d 6409 9f3d
000000b0: cbf8 493e 0587 ac3d f0d1 13bd a2b7 6ebd
000000c0: 80e1 b0bd 1265 c7bc 7757 81bd 1e00 4d3c
000000d0: f4ab 353e 946d 4f3e 120f 1fbe 93b0 023e
000000e0: 1c49 02be 90e7 3c3d ad13 1a3d b888 19be
000000f0: cb2e 653d 2650 05be f0ab 72bd bcaf 15be
00000100: b18f 1fbc 8c9a 14be b0f2 4e3d 9fbf 49bd
00000110: ffc3 d23d d441 12be 2c27 59bc 2eb1 3fbe
00000120: 0a2f dfbd 422d b03d e127 9c3d d8bf 273c
00000130: e2e2 b7bd b581 d23d cedd 103e 9878 62bd
00000140: 989c debd 1446 f73d fe04 c73d 2107 3cbd
00000150: 1f7c 0dbd 63e5 f53c 0428 afbd 6396 e93d
00000160: febe bcbd 9038 e6bc fb74 b93c 6989 8fbd
00000170: c6ba 3b3e b279 34be 6cff 3b3e 38be 2d3e
00000180: ebd9 353e 21dd f23d 72e0 973d 8faf bb3c
00000190: 5f85 01be bd18 0dbe f1e3 b7bd 6d61 bdbd
000001a0: 9ea5 0a3c 46f9 223e dc70 b5bb 6acd 0fbe
000001b0: 771b bcbd 744b beba bfb3 3abe 9c34 1c3d
000001c0: cec8 37be 1faf e1bd 3946 95bd 6100 2a3e
000001d0: 6d4e 4c3e 12c0 c33b b312 38be e52b f33d
000001e0: e419 823d 59f6 44be 610d 143e 5550 863d
000001f0: d853 df3d b51e d2bd 5f5e 033e d3ee e43d

fc2.weight f4 [128, 128]
-0.04586617 0.07095575 0.020352196 -0.013267965 0.048383884 -0.03498768 0.03399586 -0.08671665
0.017882654 -0.05253304 -0.018573841 0.060044263 0.033588246 0.03131199 -0.073485315 -0.029775115
-0.023194896 -0.07564727 -0.02127595 -0.088185765 0.049393144 0.042466965 0.034483213 0.020351913
0.026862841 -0.049853567 -0.07521127 -0.07962878 0.079880595 -0.07998568 0.03743342 0.07382259
0.0054211067 0.08491012 0.020369887 0.079378195 -0.079893135 0.02485543 -0.03269235 0.038923543
0.070566475 0.013388083 0.005179405 0.073578365 0.03881223 -0.06655057 0.031682618 0.06375569
-0.07702545 -0.023549868 0.058006316 0.02656656 0.02874457 0.02113265 -0.07995803 -0.04204692
0.024765035 0.019981157 -0.014423937 -0.03298089 0.0015892417 0.009660984 0.06284951 -0.03734907
-0.08609145 0.078658074 0.07058145 -0.006698114 -0.066308774 0.058033187 -0.05181721 -0.026796313
0.06434579 -0.05847614 0.0445463 -0.08010705 0.06356999 -0.042004317 0.037239984 -0.063522525
0.058904972 0.016193556 -0.057357404 -0.07714219 0.06474129 0.028757911 -0.0781322 -0.057829827
-0.05249122 -0.08399078 -0.05594169 0.07643048 0.040069398 0.0002764728 0.06657806 0.06671531
-0.054985292 0.024149185 -0.034697097 -0.07945529 -0.08364527 -0.07296946 -0.08304125 -0.014577815
-0.016852934 0.053566348 -0.03300314 0.011233315 -0.07873793 -0.050930757 0.02321227 -0.059127614
0.0007264747 -0.036053583 -0.013933843 -0.010848061 -0.069419585 -0.026944363 0.07790948 0.08768125
-0.06993454 -0.056279518 -0.04294318 -0.043725353 0.028202385 -0.03180953 0.0019056803 -0.016277703
-0.08087604 -0.0015432279 0.07323671 0.030133689 -0.06859527 -0.086471826 0.0880696 -0.001077874
0.054405026 -0.03261736 -0.017064752 -0.079561666 0.04911291 -0.079026386 -0.050415847 -0.0110096205
0.056706455 -0.0386638 0.025069587 0.014314808 0.07489173 -0.026859533 -0.028275615 0.018457094
0.024121547 0.036449954 0.07995162 0.06619229 -0.01380736 -0.055174988 -0.048724726 0.0026829103
0.0002659466 0.039696526 -0.087396495 -0.0051407353 -0.020263193 -0.031725198 -0.04635637 -0.0022989
-0.073643535 0.02887155 -0.05924964 -0.07564163 0.019157503 -0.073562674 0.07947636 -0.08324725
-0.00063700747 0.053809546 -0.047688115 -0.0799247 -0.07083865 -0.010612386 -0.0002657148 0.009957256
-0.039804716 -4.9922943e-05 -0.047730293 0.082795456 0.040129088 0.06379555 0.06255585 -0.01487495
-0.031776372 -0.009394248 -0.06749745 -0.0029264349 0.045083113 0.025751682 -0.040061064 -0.08278845
-0.038511094 0.08669032 -0.019217445 -0.072436005 -0.00175019 -0.029992836 -0.028551087 0.0744792
-0.0005615435 0.030167893 0.056644794 0.010010835 0.08020544 0.024558263 0.027646456 -0.031976044
0.085023955 -0.07361543 -0.030650968 -0.014682139 -0.038677234 -0.06177883 0.022947304 -0.0066252844
-0.0015642066 -0.018478127 0.019731363 -0.012837909 -0.05362889 -0.03710856 0.058661394 0.058134582
0.0062254476 -0.014049704 0.0866667 0.05513284 0.03287256 -0.009225586 -0.038756892 0.0641095
-0.0069873887 0.053064294 0.01592997 0.0072856834 0.037354708 -0.08321121 0.072441906 -0.023548793
0.076277606 -0.017916951 -0.06073085 -0.07405708 -0.039510805 0.066723436 0.08640497 -0.07953309
00000000: 2ade 3bbd 4051 913d a6b9 a63c e161 59bc
00000010: 2e2e 463d 3e4f 0fbd 3e3f 0b3d 8098 b1bd
00000020: a57e 923c e32c 57bd 2b28 98bc f9f0 753d
00000030: d493 093d 0041 003d 787f 96bd f1ea f3bc
00000040: 3903 bebc f5ec 9abd e74a aebc bd9a b4bd
00000050: 7750 4a3d d7f1 2d3d 453e 0d3d 0eb9 a63c
00000060: 760f dc3c 4133 4cbd 5e08 9abd 6a14 a3bd
00000070: 7098 a33d 88cf a3bd c953 193d 4c30 973d
00000080: 8aa3 b13b 5be5 ad3d c0de a63c 0991 a23d
00000090: 039f a3bd 9d9d cb3c 6ae8 05bd 4b6e 1f3d
000000a0: 2885 903d b159 5b3c 00b8 a93b 41b0 963d
000000b0: 93f9 1e3d aa4b 88bd a2c5 013d 5892 823d
000000c0: 85bf 9dbd a7eb c0bc 0898 6d3d 1da2 d93c
000000d0: bc79 eb3c 611e ad3c 09c1 a3bd 6439 2cbd
000000e0: 0be0 ca3c 86af a33c 6052 6cbc f816 07bd
000000f0: 1a4e d03a 1b49 1e3c 3eb7 803d 57fb 18bd
00000100: b750 b0bd 7c17 a13d 028d 903d da7b dbbb
00000110: e5cc 87bd 35b4 6d3d 483e 54bd f183 dbbc
00000120: bac7 833d ad84 6fbd 2e76 363d 2a0f a4bd
00000130: fc30 823d b80c 2cbd f488 183d 1918 82bd
00000140: 5746 713d 59a8 843c 99ef 6abd b9fc 9dbd
00000150: 1597 843d b695 eb3c c603 a0bd f8de 6cbd
00000160: 0901 57bd 5c03 acbd 1d23 65bd 9587 9c3d
00000170: cf1f 243d 8df3 9039 145a 883d 09a2 883d
00000180: 4238 61bd 83d4 c53c 8b1e 0ebd 75b9 a2bd
00000190: 364e abbd 0371 95bd 8811 aabd cad7 6ebc
000001a0: 2a0f 8abc 6368 5b3d 4d2e 07bd f00b 383c
000001b0: 5a41 a1bd c59c 50bd a927 be3c cc2f 72bd
000001c0: e470 3e3a ecac 13bd c64a 64bc 11bc 31bc
000001d0: db2b 8ebd 6dba dcbc 018f 9f3d 3a92 b33d
000001e0: d739 8fbd 5a85 66bd 30e5 2fbd 5b19 33bd
000001f0: b008 e73c b64a 02bd 05c8 f93a d158 85bc
00000200: 56a2 a5bd 2346 caba 21fd 953d edda f63c
00000210: ad7b 8cbd 2418 b1bd d65d b43d 7347 8dba
00000220: ced7 5e3d c899 05bd 61cb 8bbc 3af1 a2bd
00000230: 9e2a 493d 96d8 a1bd d980 4ebd b261 34bc
00000240: 0745 683d ef5d 1ebd bc5e cd3c a888 6a3c
00000250: d660 993d 8608 dcbc 43a2 e7bc 5533 973c
00000260: 8d9a c53c 8c4c 153d adbd a33d d38f 873d
00000270: 4438 62bc 2bff 61bd 9493 47bd c4d3 2f3b
00000280: c06e 8b39 d398 223d effc b2bd 9d73 a8bb
00000290: fffe a5bc 48f2 01bd 2de0 3dbd 24a9 16bb
000002a0: 6cd2 96bd 0784 ec3c c0af 72bd 00ea 9abd
000002b0: 32f0 9c3c 07a8 96bd 80c4 a23d 897d aabd
000002c0: d9fc 26ba 6667 5c3d 9d54 43bd 90af a3bd
000002d0: db13 91bd 93df 2dbc a34f 8bb9 c223 233c
000002e0: 450a 23bd 5a64 51b8 d780 43bd aa90 a93d
000002f0: 665e 243d 3ea7 823d 481d 803d 10b6 73bc
00000300: f127 02bd 55ea 19bc 1a3c 8abd 6ec9 3fbb
00000310: 12a9 383d 31f5 d23c 1217 24bd fe8c a9bd
00000320: cfbd 1dbd b28a b13d e76d 9dbc 5459 94bd
00000330: a266 e5ba 89b3 f5bc f8e3 e9bc 8d88 983d
00000340: 8c34 13ba a822 f73c 5f04 683d 7c04 243c
00000350: c042 a43d 692e c93c d27a e23c 50f9 02bd
00000360: 0a21 ae3d b0c3 96bd bd17 fbbc 5b8d 70bc
00000370: 056c 1ebd cc0b 7dbd fcfb bb3c ea18 d9bb
00000380: 1006 cdba 715f 97bc aba3 a13c 1856 52bc
00000390: f8a9 5bbd 25ff 17bd ee46 703d 871e 6e3d
000003a0: d7fe cb3b bb30 66bc 507e b13d f9d2 613d
000003b0: 61a5 063d ea26 17bc 8cbf 1ebd d74b 833d
000003c0: 77f6 e4bb f259 593d 927f 823c bebc ee3b
000003d0: 4001 193d a46a aabd 6c5c 943d 66e9 c0bc
000003e0: 6f37 9c3d 92c6 92bc e9c0 78bd 3dab 97bd
000003f0: 15d6 21bd 4ca6 883d 17f5 b03d 3fe2 a2bd

fc2.bias f4 [128]
0.023152485 -0.063833065 -0.016565355 -0.058805358 -0.050121095 -0.022790518 0.002535196 -0.08275699
0.02278096 -0.02567959 0.048039008 0.047620773 -0.07922671 0.048010856 0.014825417 0.008442709
-0.07698083 -0.07967264 0.0592754 -0.05463006 0.04244395 0.044697143 0.085717045 0.057513524
0.06924713 0.06535419 0.07550931 -0.062798865 0.05094714 -0.06730898 0.027116902 -0.0008403871
-0.019599495 0.057441212 -0.018069355 -0.02053956 0.08818673 0.05977664 -6.897331e-05 0.009758649
-0.0049860985 0.030676467 0.014227585 0.071268275 -0.033130582 -0.046949122 -0.058196485 -0.08606406
0.07691785 0.081998765 0.046652883 0.025438521 -0.051734265 -0.009419251 0.024130788 -0.014207049
-0.046120726 0.069350265 0.008803771 0.059007905 0.039525323 -0.004021315 -0.0014415064 -0.08578432
0.008764775 0.06646731 -0.071416125 -0.07802153 0.08795323 -0.022555307 -0.04203611 0.06295494
-0.07480874 -0.058149878 0.025406014 0.082376435 0.07321371 -0.066375606 -0.064968765 0.06478915
0.07643515 -0.023052387 -0.052402798 -0.009828192 0.03532657 -0.002247333 0.007133038 0.052769467
0.01602714 0.021383846 -0.070974156 0.04804924 -0.034829542 -0.019064957 0.041335996 0.052515775
-0.065997854 -0.08360631 -0.013194145 0.08368849 0.041024707 0.00040283956 0.08080328 0.0597242
0.076216914 -0.0020286858 0.067284785 0.0480221 0.044349767 0.06922754 -0.05982058 0.0072206715
0.06856718 0.047878165 -0.03413329 0.0066792113 -0.029142648 -0.01774889 -0.007282322 -0.08585283
-0.00832416 -0.040548198 0.059465587 0.036545552 0.028404478 0.07825413 0.084263444 0.08212052
00000000: 48aa bd3c e9ba 82bd 11b4 87bc e3dd 70bd
00000010: c74b 4dbd 2eb3 babc 8825 263b 7f7c a9bd
00000020: 239f ba3c 015e d2bc 8dc4 443d 000e 433d
00000030: 9d41 a2bd 08a7 443d 4ee6 723c 4a53 0a3c
00000040: 20a8 9dbd 692b a3bd c3ca 723d c5c3 5fbd
00000050: b5d9 2d3d 5a14 373d 6b8c af3d 4d93 6b3d
00000060: 70d1 8d3d 6bd8 853d a0a4 9a3d b19c 80bd
00000070: f3ad 503d 4ad9 89bd 4424 de3c 6c4d 5cba
00000080: 1f8f a0bc 7a47 6b3d 2f06 94bc 9442 a8bc
00000090: 3f9b b43d 5ad8 743d c4a5 90b8 bee2 1f3c
000000a0: 6d62 a3bb 374d fb3c d11a 693c 1af5 913d
000000b0: efb3 07bd b94d 40bd 705f 6ebd 5b42 b0bd
000000c0: 1b87 9d3d f8ee a73d 1817 3f3d 7264 d03c
000000d0: 4fe7 53bd 3453 1abc eead c53c afc4 68bc
000000e0: 16e9 3cbd 8307 8e3d b13d 103c 46b2 713d
000000f0: 4ee5 213d 3cc5 83bb eef0 bcba b1af afbd
00000100: 219a 0f3c 0320 883d 9e42 92bd c0c9 9fbd
00000110: d320 b43d e8c5 b8bc 0e2e 2cbd 85ee 803d
00000120: 5335 99bd 912e 6ebd 4620 d03c fab4 a83d
00000130: 12f1 953d efef 87bd 580e 85bd 2db0 843d
00000140: 088a 9c3d 5cd8 bcbc 51a4 56bd 6d06 21bc
00000150: 98b2 103d fe47 13bb 42bc e93b cc24 583d
00000160: 594b 833c 2d2d af3c e65a 91bd 48cf 443d
00000170: 6ca9 0ebd 1d2e 9cbc ef4f 293d c81a 573d
00000180: e229 87bd c939 abbd 412c 58bc df64 ab3d
00000190: 8609 283d 3634 d339 317c a53d 5da1 743d
000001a0: 9d17 9c3d b3f3 04bb 9bcc 893d d2b2 443d
000001b0: 1aa8 353d 2bc7 8d3d 6d06 75bd 629b ec3b
000001c0: f36c 8c3d e51b 443d 59cf 0bbd 49dd da3b
000001d0: 90bc eebc 1f66 91bc 8ba0 eebb 9cd3 afbd
000001e0: 0f62 08bc de15 26bd 3092 733d cab0 153d
000001f0: 82b0 e83c b443 a03d 5092 ac3d ce2e a83d

fc3.weight f4 [1682, 128]
0.030275641 0.08329161 0.014017652 0.08520976 0.08193268 -0.003587076 0.067998335 -0.014430385
0.014930236 -0.05126612 -0.0639284 -0.033152193 0.055865575 0.07375045 -0.05986869 0.021795146
-0.06586661 -0.042417273 -0.026363147 -0.022392558 -0.047583055 0.053588483 0.015699679 0.019393671
-0.034059722 -0.032326844 0.048929572 -0.0013009467 0.028835103 -0.029335417 -0.04782558 0.061688706
-0.07527528 0.019904187 0.07267636 -0.002389463 0.010046301 -0.0034604038 -0.07334442 0.08266518
-0.0044670915 0.011498008 -0.08105932 0.012963496 -0.005755626 0.06536912 0.01737272 -0.065007806
0.068488546 0.03234447 0.06736747 0.05018872 -0.046554785 0.081369326 -0.015805036 0.0341119
0.017151438 -0.03962043 0.08284258 0.03096843 0.05565055 -0.033725917 0.0194749 -0.017246712
-0.031946026 -0.032917775 -0.01853495 0.07001452 0.08427909 -0.052733727 0.023751033 -0.010452966
-0.036292966 0.077270016 0.06433279 0.004208742 -0.017695954 0.020952642 -0.029405592 0.04938247
-0.072931506 -0.014249786 -0.030175246 0.05934745 -0.023903226 -0.024016717 -0.08104669 0.07551213
0.04715324 0.034969345 0.062011763 -0.054664273 0.019916534 -0.085986376 0.006516535 -0.048384022
0.035704795 -0.01836453 -0.013746879 0.022897001 -0.07745996 0.08412948 0.07391221 0.005802683
0.039380096 0.052618064 0.009683776 -0.07092308 0.00075444963 -0.04977941 -0.031365052 0.079042695
0.07766475 0.023993474 0.042016465 -0.042691953 -0.03839225 0.042020902 0.02438232 -0.050116394
-0.08278842 -0.08322932 -0.06675025 -0.004582016 0.050937332 0.06428547 0.017167475 -0.039613336
-0.02562071 0.002991931 -0.08784638 -0.02150014 0.051078714 0.086999536 -0.034605764 -0.00082095736
0.007074812 0.071102165 0.040614516 0.0038057233 -0.06308911 0.0040612807 -0.043768752 0.08581358
0.060743567 0.015879288 0.0214179 0.0259293 -0.00059785304 0.018080324 -0.020816792 -0.07933259
-0.04996137 0.00069940585 0.018688913 -0.022316756 0.08083019 -0.0108357435 -0.059633587 -0.06660839
-0.083728716 -0.037864096 -0.066091254 0.05122668 0.06314212 -0.0063394234 0.0023436071 -0.08453718
-0.026784554 0.008389678 -0.016171925 -0.06796552 0.014506292 -0.054200362 -0.018580996 -0.010261409
-0.04051664 0.040051263 0.010993152 -0.003848492 0.04233377 0.08524646 -0.018178662 -0.04983085
0.08044921 0.076731466 -0.022049682 0.08513422 0.0140860565 0.03262208 0.07045769 0.06483222
-0.029387154 0.05881089 0.014100596 -0.06411954 0.027452033 0.03975963 0.042130895 -0.04494599
0.079921834 -0.050465193 -0.014063824 0.033840746 -0.02591008 -0.08766604 -0.055992413 -0.072502464
0.079376526 0.025665544 0.039271254 0.070066355 -0.0015675362 0.02482912 0.032224774 -0.06410307
0.03455448 0.03726319 -0.06968144 0.034046352 0.03624473 0.08784379 0.061047982 0.079471156
-0.039714426 -0.0048269522 -0.021963282 -0.03483006 -0.04212841 0.07332304 0.030044096 0.07447495
0.05901095 -0.07995355 -0.03902815 0.034698796 -0.08826764 0.0046210857 -0.026435187 -0.08489301
-0.010046091 0.007829177 -0.019162528 0.018399028 0.06055678 0.08379721 -0.08656086 0.012710003
0.00026387087 -0.032079525 -0.018581439 0.018917276 0.074535064 -0.017894287 0.014894781 0.047175746
00000000: 9f04 f83c cb94 aa3d 4baa 653c 7482 ae3d
00000010: 52cc a73d 2615 6bbb b642 8b3d 6c6d 6cbc
00000020: f39d 743c 6cfc 51bd e5ec 82bd 98ca 07bd
00000030: 4dd3 643d 7a0a 973d df38 75bd bc8b b23c
00000040: 13e5 86bd bcbd 2dbd 87f7 d7bc 9970 b7bc
00000050: 73e6 42bd 997f 5b3d 9d9c 803c 7adf 9e3c
00000060: 3582 0bbd 2769 04bd 606a 483d 8784 aaba
00000070: 9837 ec3c d450 f0bc c1e4 43bd 4cad 7c3d
00000080: ed29 9abd 1b0e a33c 58d7 943d 8998 1cbb
00000090: 3e99 243c f1c7 62bb 9935 96bd 5d4c a93d
000000a0: ae60 92bb 2462 3c3c 6e02 a6bd d864 543c
000000b0: b199 bcbb 3fe0 853d 3c51 8e3c d022 85bd
000000c0: b943 8c3d a37b 043d f5f7 893d b092 4d3d
000000d0: 3bb0 3ebd f6a4 a63d 9079 81bc ebb8 0b3d
000000e0: 2c81 8c3c 0849 22bd 5fa9 a93d 81b1 fd3c
000000f0: d5f1 633d 3024 0abd d389 9f3c fa48 8dbc
00000100: d6d9 02bd cad4 06bd 9cd6 97bc c663 8f3d
00000110: 849a ac3d 52ff 57bd 8791 c23c eb42 2bbc
00000120: efa7 14bd be3f 9e3d e9c0 833d 7de9 893b
00000130: 1bf7 90bc e0a4 ab3c ffe3 f0bc 4645 4a3d
00000140: 1d5d 95bd ef77 69bc 1432 f7bc 5016 733d
00000150: b3d0 c3bc b5be c4bc cffb a5bd 1ba6 9a3d
00000160: c123 413d 043c 0f3d 0c00 7e3d a5e7 5fbd
00000170: 0028 a33c a019 b0bd a888 d53b 532e 46bd
00000180: 313f 123d 3671 96bc 973a 61bc 7e92 bb3c
00000190: 54a3 9ebd 144c ac3d 495f 973d 6f24 be3b
000001a0: 064d 213d 0a86 573d b3a8 1e3c 1f40 91bd
000001b0: 42c6 453a 7fe5 4bbd a478 00bd 23e1 a13d
000001c0: b20e 9f3d f68d c43c 7519 2c3d c2dd 2ebd
000001d0: 3141 1dbd 1c1e 2c3d 6ebd c73c d946 4dbd
000001e0: fa8c a9bd 2274 aabd 5bb4 88bd bc24 96bb
000001f0: aaa3 503d 1aa8 833d cea2 8c3c 9841 22bd
00000200: 86e2 d1bc 4614 443b cee8 b3bd 1021 b0bc
00000210: ea37 513d d02c b23d c6be 0dbd 8435 57ba
00000220: d3d3 e73b 039e 913d 685b 263d 7169 793b
00000230: dd34 81bd 7e14 853b dd46 33bd 08bf af3d
00000240: 3fce 783d 4815 823c 9874 af3c af69 d43c
00000250: 3db9 1cba 301d 943c fa87 aabc 2079 a2bd
00000260: 4ba4 4cbd 5558 373a 7e19 993c a1d1 b6bc
00000270: 4c8a a53d 6788 31bc 5942 74bd fb69 88bd
00000280: f679 abbd 6217 1bbd da5a 87bd 11d3 513d
00000290: a850 813d f0ba cfbb 3497 193b d421 adbd
000002a0: 486b dbbc dc74 093c fc7a 84bc 8231 8bbd
000002b0: ccab 6d3c 3301 5ebd 2c37 98bc 781f 28bc
000002c0: c7f4 25bd cb0c 243d 9f1c 343c fb36 7cbb
000002d0: 2d66 2d3d b295 ae3d 6beb 94bc 6f1b 4cbd
000002e0: 8ec2 a43d 6325 9d3d 89a1 b4bc da5a ae3d
000002f0: 34c9 663c bb9e 053d 1f4c 903d c1c6 843d
00000300: 54bd f0bc b0e3 703d 3006 673c 1b51 83bd
00000310: 16e3 e03c feda 223d 7291 2c3d 4919 38bd
00000320: 0fae a33d 97b4 4ebd f46b 66bc 989c 0a3d
00000330: 6041 d4bc 418a b3bd 4d58 65bd 2c7c 94bd
00000340: 2990 a23d 8c40 d23c e5da 203d f37e 8f3d
00000350: c975 cdba 7066 cb3c 20fe 033d 7848 83bd
00000360: 0089 0d3d 49a1 183d 25b5 8ebd 3074 0b3d
00000370: 5b75 143d 72e7 b33d 730d 7a3d c6c1 a23d
00000380: 98ab 22bd 692b 9ebb 57ec b3bc f7a9 0ebd
00000390: d78e 2cbd 642a 963d 091f f63c 5386 983d
000003a0: 77b5 713d b0be a3bd fbdb 1fbd 5320 0e3d
000003b0: aac5 b4bd 7a6c 973b 9b8e d8bc 63dc adbd
000003c0: 5c98 24bc f345 003c bcfa 9cbc 8fb9 963c
000003d0: 630a 783d df9d ab3d d246 b1bd 9e3d 503c
000003e0: 2658 8a39 d265 03bd 1a38 98bc 67f8 9a3c
000003f0: d7a5 983d 0a97 92bc 3d09 743c 5b3b 413d

fc3.bias f4 [1682]
-0.043770764 0.041044813 -0.0047414782 -0.0762016 -0.07773982 -0.018618738 0.06784415 -0.074731745
-0.056014445 -0.05545024 0.02727761 0.05702954 0.08263911 0.030447757 0.008549604 0.01823458
0.06855545 -0.03371589 -0.014272788 -0.06488602 0.049945973 -0.03454013 0.01269796 0.049540404
0.006531497 -0.06653347 0.03675163 0.08771618 0.088379234 -0.07951218 -0.010735476 -0.003042191
0.047581673 -0.01977059 -0.02407801 -0.07944919 0.015551565 -0.06654744 -0.08489571 0.08286811
-0.007322783 0.023619303 0.044886835 0.017194903 -0.07354558 0.05211438 0.055935957 0.06870047
0.08620476 -0.02982587 -0.074238546 0.012379667 0.051480826 0.045445807 -0.055026725 0.030757137
0.074467465 -0.0081408005 -0.07146432 -0.08789661 -0.022311002 -0.0587795 0.06359832 0.07511804
0.0033990063 0.0017803671 -0.03446781 -0.06564793 -0.056280848 0.07322555 -0.05413344 0.08041164
-0.062218398 0.04156461 0.029621406 0.00753455 0.018448876 -0.054891095 -0.06405912 -0.01720548
-0.013471797 0.080344304 0.05083266 -0.07777462 0.06329961 0.067127265 -0.08486996 0.070487894
-0.02355107 0.059486113 -0.043033395 -0.061697856 -0.07047685 -0.059725635 -0.042959545 0.067896225
0.065280996 -0.0068347016 -0.03600834 -0.029623576 -0.06599872 -0.08023681 -0.051949836 0.024062425
-0.08150292 -0.0539331 0.006101209 0.0046912706 0.062183343 -0.019640232 -0.042696673 -0.01387097
-0.043777213 0.004585356 -0.069459625 -0.018625682 0.014083011 0.07348763 0.014530484 0.06635038
-0.02938846 0.0091257095 -0.018617842 -0.0771324 0.04306624 -0.03386493 0.075947605 0.06613494
0.08102629 -0.038405165 0.05398062 0.08471962 -0.03207726 -0.041916545 0.078138866 -0.025734065
-0.0395831 0.029162552 -0.049509197 -0.07454925 -0.047294106 -0.077818014 0.027615806 -0.01426223
-0.07817112 -0.07813484 -0.047252603 0.03317073 0.0788278 0.029447308 0.027456995 0.008014065
0.06225771 0.05536052 0.02080773 0.08506631 -0.0040211254 0.08504362 -0.0379651 -0.0066573266
-0.014690042 0.06585945 -0.07618205 -0.06802989 -0.049262017 0.014553338 -0.087284364 -0.01708472
0.04007335 0.006527546 0.018548986 -0.07044949 -0.08162955 -0.047612295 6.7529785e-05 -0.03615069
0.0045599095 0.017171333 -0.06033239 -0.0045124735 0.019476438 -0.054280534 0.020374555 0.05786136
0.08747831 -0.004972053 0.013318889 0.008845317 0.04392182 -0.06195221 -0.0042107333 -0.0083962735
0.08327942 -0.013752421 0.0034771992 -0.052944563 -0.041212525 0.017812174 0.068551235 -0.06882072
0.05979935 -0.006852572 0.08167349 -0.06772546 0.020181417 0.0049311076 -0.020333484 -0.08581713
-0.054118313 -0.016809532 0.07855366 0.026212472 0.056316406 -0.07713905 -0.015384611 -0.07880585
0.052626934 0.07391316 0.027822314 -0.040303785 0.0030760244 0.037564978 -0.08063496 -0.057093766
0.053551175 -0.02162834 0.054416332 -0.012863196 -0.04133193 0.06546173 -0.009874974 -0.056868963
-0.08026372 0.08233411 0.07458982 -0.0651535 -0.051611997 -0.027409876 0.0066529852 -0.031667814
-0.00054647605 -0.018759973 0.0038077463 0.06934621 0.07146584 0.01845776 -0.009567007 0.001812462
-0.05618652 0.027760863 -0.060026225 0.04363523 -0.048215497 -0.073396094 0.01229118 0.075286716
00000000: f948 33bd 9b1e 283d 675e 9bbb 960f 9cbd
00000010: 0e36 9fbd 5386 98bc e0f1 8a3d f50c 99bd
00000020: 676f 65bd ca1f 63bd 4b75 df3c cf97 693d
00000030: b23e a93d 936d f93c a313 0c3c b060 953c
00000040: cd66 8c3d ac19 0abd 69d8 69bc f6e2 84bd
00000050: 2694 4c3d f479 0dbd 1b0b 503c e1ea 4a3d
00000060: 2b06 d63b b342 88bd e188 163d 8aa4 b33d
00000070: 2c00 b53d 48d7 a2bd dae3 2fbc 7f5f 47bb
00000080: 00e5 423d eff5 a1bc 3f3f c5bc 42b6 a2bd
00000090: fecb 7e3c 064a 88bd cddd adbd c1b6 a93d
000000a0: f5f3 efbb 457d c13c 42db 373d 53dc 8c3c
000000b0: 119f 96bd e375 553d 1a1d 653d d5b2 8c3d
000000c0: 1f8c b03d 6255 f4bc 610a 98bd 16d4 4a3c
000000d0: 8fdd 523d 6225 3a3d b463 61bd 64f6 fb3c
000000e0: 6682 983d fe60 05bc e35b 92bd 2303 b4bd
000000f0: 90c5 b6bc c6c2 70bd d63f 823d 7dd7 993d
00000100: ddc1 5e3b 355b e93a 1e2e 0dbd 6c72 86bd
00000110: bf86 66bd 47f7 953d 07bb 5dbd dcae a43d
00000120: b8d8 7ebd a73f 2a3d 97a8 f23c 63e4 f63b
00000130: 1922 973c 7cd5 60bd 6e31 83bd 82f2 8cbc
00000140: d0b8 5cbc 8e8b a43d e835 503d 4d48 9fbd
00000150: 3aa3 813d 057a 893d 4dd0 adbd f55b 903d
00000160: 2cee c0bc b6a7 733d c943 30bd e4b6 7cbd
00000170: 2b56 90bd dea2 74bd 59f6 2fbd 2d0d 8b3d
00000180: 0bb2 853d a2f5 dfbb 7b7d 13bd 24ad f2bc
00000190: 562a 87bd 3253 a4bd 5ac9 54bd 901e c53c
000001a0: 01eb a6bd f4e8 5cbd a7ec c73b 3bb9 993b
000001b0: f6b3 7e3d 8de4 a0bc b5e2 2ebd 1143 63bc
000001c0: bc4f 33bd c140 963b d940 8ebd e394 98bc
000001d0: 6ebc 663c af80 963d 4411 6e3c b5e2 873d
000001e0: 11c0 f0bc 0084 153c 7284 98bc 97f7 9dbd
000001f0: 3a66 303d f4b5 0abd 6b8a 9b3d c171 873d
00000200: 1df1 a53d bc4e 1dbd c81a 5d3d 7b81 ad3d
00000210: 7263 03bd afb0 2bbd 4507 a03d 3fd0 d2bc
00000220: e321 22bd 4ee6 ee3c 28ca 4abd 47ad 98bd
00000230: 77b7 41bd 0d5f 9fbd 8b3a e23c 21ac 69bc
00000240: 2e18 a0bd 2905 a0bd f28b 41bd 08de 073d
00000250: 7870 a13d 7b3b f13c 7eed e03c 6d4d 033c
00000260: f101 7f3d b6c1 623d f974 aa3c 3f37 ae3d
00000270: a5c3 83bb 592b ae3d 4b81 1bbd b425 dabb
00000280: 80ae 70bc 52e1 863d 5605 9cbd 4153 8bbd
00000290: f8c6 49bd 2071 6e3c 25c2 b2bd 41f5 8bbc
000002a0: f423 243d 06e5 d53b 0bf4 973c d247 90bd
000002b0: 652d a7bd 1c05 43bd c79e 8d38 bf12 14bd
000002c0: 4b6b 953b e5aa 8c3c 191f 77bd 5fdd 93bb
000002d0: 0d8d 9f3c 4455 5ebd 8ae8 a63c 0900 6d3d
000002e0: d427 b33d 9bec a2bb 7837 5a3c f3eb 103c
000002f0: 5ee7 333d 9ac1 7dbd 31fa 89bb 8690 09bc
00000300: 678e aa3d d651 61bc b9e1 633b 66dc 58bd
00000310: 77ce 28bd d6ea 913c 9764 8c3d e1f1 8cbd
00000320: 2af0 743d 8a8b e0bb 6e44 a73d a5b3 8abd
00000330: 8053 a53c 2195 a13b 6892 a6bc e4c0 afbd
00000340: 2aab 5dbd 25b4 89bc bee0 a03d 8abb d63c
00000350: 08ac 663d 14fb 9dbd bc0f 7cbc f664 a1bd
00000360: 578f 573d c85f 973d 9feb e33c 9515 25bd
00000370: 2097 493b bcdd 193d f123 a5bd 27db 69bd
00000380: 7a58 5b3d eb2d b1bc a9e3 5e3d 28c0 52bc
00000390: ab4b 29bd cd10 863d a5ca 21bc 6eef 68bd
000003a0: 4e61 a4bd c99e a83d 8cc2 983d 336f 85bd
000003b0: 1a67 53bd ad8a e0bc 4901 da3b 1cb6 01bd
000003c0: 6341 0fba 84ae 99bc 628b 793b 6305 8e3d
000003d0: af5c 923d ba34 973c f0be 1cbc 2290 ed3a
000003e0: d623 66bd c06a e33c 0fde 75bd dbba 323d
000003f0: 9d7d 45bd b150 96bd f260 493c ec2f 9a3d
