model1.pth (torch, 962666 bytes, 10 tensors)

fc1.weight f4 [128, 45]
00000000: 770f 083e b316 4c3c 9515 393c e8f2 083e
00000010: 2fbf f7bd ce56 a1bd 4576 d23d 2e33 b2bd
00000020: 208e 083e 941f 9bbd 980b 90bd b8c4 903d
00000030: 9e77 e73d 14da e73c f654 f4bd d148 4dbd
00000040: 47b2 53bd df44 e53d 1225 c9bd 39a8 9bbc
00000050: cc16 cebd 62fb bcbd fb1a 02bd 25e7 cabd
00000060: 2184 d23d 179a d93d 8f56 c2bd 79f2 5abd
00000070: 89d5 c13d d809 a53d 791a a83b 9f9d b03d
00000080: 06e5 e63d cfcc c83d 38a2 3cbd 19f4 4dbc
00000090: ee6e 84bd 188f 583d 35d8 0abe 0476 abbb
000000a0: afe3 9abd d10f b03d 6c88 c3bd 2bda 953d
000000b0: b783 d5bc dfa6 f6bc 641d a5bd fe27 e3bd
000000c0: ea3e 9e3d cce9 2fbd 6b46 003d 7d9e 0dbd
000000d0: 1829 14be 4d37 c83b a806 09be 5ec4 0ebe
000000e0: 884d ac3d 43e0 173e 28c1 de3d 3140 03be
000000f0: c0e4 fdbd dc16 f7bc 66c2 0a3d 85ea 1fbc
00000100: afb2 943d 3933 16bd 45cb 843d e6fa ef3d
00000110: 9d55 993c c159 853c 4052 e0bd c0a9 aa3c
00000120: ac6f 103e 8bc3 2c3d 773d b2bd c864 73bd
00000130: 4b01 053e ef92 cd3d 2e71 c03d de72 5f3d
00000140: 52c6 593c c4d0 0f3e 8d8e eb3d dc34 f1bd
00000150: 5c05 7abd c28f b4bd 1954 853d 7778 913d
00000160: d11e a0bc 627f 563d 148f f33c 521a 93bd
00000170: 5877 0c3e 8346 bf3c be66 51bd 4b7a ca3d
00000180: 40e2 333d d6fd 043e 50fc 69bc c11c 96bd
00000190: e607 073c ab86 b9bd 40c8 80bc 00cc 963d
000001a0: f012 c9bd d4cc 62bd 4a0a e5bc c07e f9bc
000001b0: 1fbc 6dbc 3d91 07be 8652 033e 084d 54bd
000001c0: feab 6a3c 47b6 cc3a a516 96bd 4b35 0fbe
000001d0: 1bad 003e 5e36 dcbd f6ab 87bd cee7 c5bd
000001e0: 9e73 0a3e 5b4f 8bbd f372 0c3d ff24 44bd
000001f0: cf44 d73d 2256 f1bd 3a1d e3bd 38ab 9dbd
00000200: 97bc 13be 6ed0 db3d c368 29bd cd42 cebd
00000210: 3f36 c7bd df85 c3bd 6f07 92bd 2087 063e
00000220: b544 913d a149 fabd 7e64 503c 904e 1dbe
00000230: b992 533d dc64 b53d ab0c 16bd 4b57 a83d
00000240: 07dc b5bd 0778 163e 86d5 09be 3767 893c
00000250: feb4 a83d 925b af3d b34a 9abd 97ce 14be
00000260: ca68 fa3c dcb8 573d 87cb 5fbd cba5 123d
00000270: c2e9 fc3d dcb8 803c 9530 003e 38dd 123e
00000280: 9248 843d a718 023e da81 f9bd 2d89 01be
00000290: 0503 933d 9b71 80bd c33a adbd eb26 7d3b
000002a0: f075 60bd c4ad 713d cea8 13bc 72f2 40bc
000002b0: 7c2e cbbd a720 0abe 22cc 4f3d b331 9ebd
000002c0: a88b c8bd ae49 423d 033d b43d 7804 f13d
000002d0: 9197 5e3d ae41 86bd c541 d3bc 59db f53d
000002e0: de9a 0fbe af70 093e ae54 edbb aaab ad3c
000002f0: 36e9 b5bc 34df 073e c044 83bd 6863 ad3d
00000300: 4e36 06bd eee5 023e cc9c 89bd 5bf3 e2bd
00000310: f297 093e 4f98 c3bd 2456 41bd 9733 41bc
00000320: 4317 163e 7182 02be 6cd2 693c 6017 463d
00000330: 676b f6bd 12bd eb3d 5fd8 7a3d 43ad b3bb
00000340: 2d11 17be dbeb c33d aa90 f3bd bd58 bd3d
00000350: b34c f5bd 9234 d73d 9ce7 f33d c7d3 f43d
00000360: 5ca9 bfbd 9581 903d 9f3b 6bbc 1963 0bbd
00000370: 79bb 05be 50b3 d43c 2586 6dbb a70b 163e
00000380: 88d0 de3c 40a5 44bd 7985 c0bb 2b4e f83d
00000390: fc26 2dbd 34a5 0fbe 7de3 b4bd 7f10 d73d
000003a0: eafe ae3d d79a fabc d40e 67bd eba4 0d3e
000003b0: 6932 1f3d 26e3 b3bd 78f3 8c3d ec8e 223d
000003c0: 7cdf 263c 98c7 f23d f6a2 c53d 1f88 973d
000003d0: d315 e6bd 800f 2f3c dfd0 053e 175a 7abd
000003e0: 8002 a93d 8287 bdbd 6aa4 8d3c dff7 2e3d
000003f0: 9a98 783d fe89 bf3c 5e9d 8a3d 45ab 3f3d
0.1328715 0.012456584 0.011296649 0.13373911 -0.12097012 -0.07877885 0.102764644 -0.08701168
0.13335466 -0.075743824 -0.07033461 0.07068771 0.11302112 0.02830223 -0.119302675 -0.05011827
-0.05168369 0.11194777 -0.09821524 -0.019001113 -0.10062942 -0.09227635 -0.03176401 -0.099073686
0.10279108 0.106250934 -0.09489166 -0.053453896 0.09464557 0.08058518 0.005130109 0.08623814
0.112741515 0.09804689 -0.04605314 -0.012570404 -0.06466471 0.05287084 -0.13559039 -0.0052325744
-0.075629584 0.08596767 -0.09547505 0.07317003 -0.026063783 -0.030108867 -0.080622464 -0.11091612
0.07726844 -0.042947575 0.031317156 -0.034574974 -0.14468801 0.006110108 -0.13381445 -0.13942096
0.084132254 0.14831643 0.108766854 -0.12817456 -0.12397146 -0.030162267 0.0338768 -0.009760504
0.07260644 -0.036669943 0.06484083 0.11717777 0.018717581 0.01627815 -0.10953188 0.020832896
0.141051 0.04217867 -0.0870313 -0.059422284 0.12988774 0.10037791 0.09396587 0.054552905
0.013291912 0.14044482 0.11501799 -0.1177766 -0.061040267 -0.08816482 0.06510181 0.07103055
-0.019545944 0.052367575 0.02973131 -0.071827546 0.13717401 0.023349052 -0.051123373 0.09886607
0.04391694 0.12987456 -0.014281347 -0.07329703 0.008241629 -0.09058889 -0.015720487 0.07363129
-0.09818065 -0.05537112 -0.027959008 -0.030455947 -0.014510184 -0.13238998 0.12824449 -0.051831275
0.014323233 0.0015618288 -0.07328538 -0.13985173 0.12566034 -0.10752557 -0.06624596 -0.09663354
0.13520667 -0.06802245 0.03428931 -0.047886845 0.10511171 -0.11784007 -0.11089559 -0.07698673
-0.1442741 0.10733114 -0.041359674 -0.10071335 -0.097271435 -0.09547018 -0.07130324 0.13137484
0.07093183 -0.12221075 0.012719272 -0.15362 0.051653598 0.08857128 -0.036633175 0.08219775
-0.088798575 0.14694224 -0.13460359 0.01677285 0.082376465 0.085623875 -0.07533779 -0.14531933
0.030567545 0.05266653 -0.05463746 0.035802644 0.12349273 0.015713148 0.12518533 0.14342201
0.06459154 0.12704717 -0.1218297 -0.12649985 0.0717831 -0.062716685 -0.084584735 0.0038627933
-0.054799974 0.059003606 -0.009012414 -0.0117765535 -0.099209756 -0.13489018 0.050731786 -0.07724323
-0.09792262 0.047433548 0.088006996 0.117684305 0.054343764 -0.06555496 -0.025788197 0.12004728
-0.14023921 0.13421892 -0.0072427606 0.02120002 -0.02220593 0.13268739 -0.064095974 0.08466226
-0.032766633 0.12783024 -0.0671936 -0.110815726 0.13436869 -0.09550535 -0.04720129 -0.011792085
0.14657311 -0.12745072 0.01427136 0.048362136 -0.12032204 0.11510672 0.061241504 -0.005483301
-0.14752646 0.0956647 -0.11892827 0.09245441 -0.1197752 0.10508074 0.1190941 0.11954456
-0.093584746 0.07055966 -0.0143574765 -0.034030054 -0.13059796 0.02596441 -0.0036243286 0.14652883
0.027199045 -0.048009157 -0.005875286 0.12124284 -0.042273507 -0.14027864 -0.088324524 0.10501193
0.08544715 -0.030591412 -0.056410626 0.13832442 0.038866434 -0.087835595 0.068823755 0.039687082
0.010185119 0.11854476 0.09650223 0.0739901 -0.112346314 0.010684848 0.13067959 -0.061121073
0.0825243 -0.09254362 0.017290313 0.042716857 0.060692407 0.02338123 0.06768297 0.046794195

fc1.bias f4 [128]
00000000: 2dc6 c63d ba71 9dbd e899 393d ad4e 933d
00000010: 78b1 0b3e 3108 b2bd c6ba 5e3d 7872 acbc
00000020: 3cba 6fbd 907f 683d 8f4b 003d 9046 f53c
00000030: 63bc 4abd 92b3 cb3d eec4 58bd a73e 35bd
00000040: ada8 0b3e 8fcb c73d 7539 683c cf55 58bd
00000050: 9045 96bd 992a 8f3d 4fd8 233e 83a9 e63d
00000060: 2acb 893d 35a7 b63d 6bb2 d63d 52d1 6c3d
00000070: 9475 a3bd 0541 19be 2677 d1bd 537d 55bd
00000080: db7c 0fbe 4938 d0bc 3130 f93d 928c a33c
00000090: f294 9a3d ee2c 86bc c930 1bbe eb23 053e
000000a0: e84a 313c fc21 afbc 2cd8 2c3d 78a6 c03d
000000b0: ebf2 c2bc 1194 033e 7aad a0bc 6954 a2bd
000000c0: f6f2 ecbb 96a1 523d cccc a33d c8ed b2bd
000000d0: 72a0 e9bc ea0c 83bc fb4d 0cbe 7d81 773b
000000e0: 0dfc c03d 6bdb 90bd 99a9 29bd 199a f13d
000000f0: e21d a9bb 6922 89bd 8a04 9b3d 8fb5 803d
00000100: d04e b2bd f4df 08bd 23b2 a9bd 080d dabd
00000110: 4a48 41bd 0dc8 49bc 1a30 2fbd c1b5 5a3c
00000120: 63fb a8bd 9084 0d3d 66ab d63b 1dec 0fbe
00000130: 3914 0d3c d2d0 523d 4736 d8bd bb98 14bd
00000140: 5674 97bd bb14 623c 2453 023e ccb9 8cbd
00000150: 67fd f0bd 908e 0f3e c295 06be 8327 243d
00000160: a9e0 58bd e4b2 153e cd39 9cbd d770 643b
00000170: f705 eab9 b630 6a3d f445 2d3d 51ac d33d
00000180: dac5 d63c 5e05 c2bd 693d 1abe 8501 1abe
00000190: 6e9b aabd b9d9 09bd 627e a9bc 72c3 113e
000001a0: 0dbe c4bc 0c16 89bd d66b 993d 4825 14be
000001b0: 4570 07bd b31b 48bd dde8 913d 810a 053e
000001c0: 5dc2 853d db5c a4bd 5826 debc 70c3 043e
000001d0: ec8b 99bd 3dd9 cc3d 2a19 62bd 1684 66bd
000001e0: 6571 cc3d 844d 71bd 8583 05be 10fd d73d
000001f0: 9e0e 0abe 64ed e9bd 830d bf3d 0212 d73d
0.09705768 -0.07687707 0.045312792 0.071927406 0.13641918 -0.08692969 0.05437734 -0.021050677
-0.058527216 0.056762278 0.03132206 0.029940873 -0.049496066 0.0994636 -0.05292218 -0.044249203
0.13638563 0.097556226 0.014173855 -0.05281621 -0.07337487 0.06990547 0.16000484 0.112628005
0.067282036 0.08918611 0.10483249 0.05781681 -0.079814106 -0.14966209 -0.10227804 -0.05212147
-0.14012472 -0.025417464 0.12167395 0.01996449 0.0754794 -0.016378846 -0.15155329 0.13001983
0.010821082 -0.02137851 0.042198345 0.094067514 -0.023797473 0.12849452 -0.01961397 -0.07926256
-0.0072311116 0.05142363 0.07998046 -0.087367594 -0.02851889 -0.015997369 -0.13701622 0.003776639
0.09423075 -0.07073101 -0.041421507 0.1179697 -0.005161033 -0.06696016 0.07569225 0.062846296
-0.087064385 -0.033416703 -0.0828593 -0.10647017 -0.04718808 -0.012315762 -0.042770483 0.013348998
-0.08251073 0.03455025 0.006551194 -0.14054914 0.0086107785 0.051468678 -0.105572276 -0.036278468
-0.07395236 0.013798888 0.12727028 -0.068713754 -0.11767083 0.14019227 -0.13143066 0.040076744
-0.052948628 0.14619023 -0.07628212 0.0034857297 -0.00044636402 0.05717536 0.04230304 0.10335601
0.02621739 -0.0947368 -0.15062489 -0.15039642 -0.08330427 -0.033654902 -0.020690147 0.14234713
-0.024016405 -0.06693658 0.07491271 -0.14467347 -0.033066053 -0.04885454 0.07124493 0.12992288
0.065312125 -0.08025523 -0.027117893 0.12965178 -0.07497391 0.100023724 -0.05519978 -0.05627831
0.09982566 -0.058911815 -0.13038452 0.10546315 -0.13482139 -0.11422232 0.09328749 0.105014816

bn1.weight f4 [128]
00000000: d538 7e3f 2216 803f de44 803f 9748 7e3f
00000010: 6dec 7d3f 159d 7f3f 2cd0 803f 6795 813f
00000020: bee8 7f3f 1741 813f 55fc 7e3f cbaf 803f
00000030: 6401 813f b7d9 7f3f 581b 803f 0000 803f
00000040: 5141 813f 388d 803f 833b 7d3f 0000 803f
00000050: ccf7 7d3f 45f7 7f3f 2f63 813f 1e1e 803f
00000060: 42f7 803f f8ad 803f 8fae 803f b598 813f
00000070: 0f17 813f 0000 803f 17f9 813f 0000 803f
00000080: 0000 803f b957 813f aea3 7f3f 7902 803f
00000090: 17b2 803f f271 813f 0000 803f 69c0 7e3f
000000a0: 61c4 7e3f 1412 7e3f e28b 7e3f ac7c 7d3f
000000b0: 0000 803f b653 803f 0000 803f 0000 803f
000000c0: 7f03 813f e837 7e3f 23cf 813f a029 7f3f
000000d0: e49b 7f3f f254 803f be9a 7d3f 6c81 7e3f
000000e0: 9cec 7d3f 0000 803f 0000 803f d82e 803f
000000f0: f7e7 7d3f 56ff 7e3f 70e8 7f3f 3093 803f
00000100: 6f6e 813f 54e7 7f3f fb9c 803f 0000 803f
00000110: 7511 803f a2b4 7e3f e36c 7e3f 07dd 7d3f
00000120: 56e6 7d3f f484 803f d9ac 803f 0000 803f
00000130: 05c6 7f3f 88f0 803f 0000 803f 3433 803f
00000140: be98 813f e7b0 7d3f 21af 7f3f 15ba 7d3f
00000150: 710e 803f 715a 813f 0000 803f 5367 7e3f
00000160: 0000 803f 12b2 7f3f 0000 803f 9432 813f
00000170: c1cc 7e3f d676 803f bbdd 7c3f 9ca9 7e3f
00000180: eb01 813f 28bc 803f 0000 803f 0000 803f
00000190: 0000 803f 0000 803f 0000 803f e933 813f
000001a0: dd5c 813f eaf4 7c3f c215 803f 0000 803f
000001b0: 0000 803f 494e 7f3f 635c 813f 530a 803f
000001c0: a0b2 7c3f 0000 803f 0000 803f 288a 803f
000001d0: 8143 813f e149 7d3f 0000 803f 0aa8 7e3f
000001e0: 363a 7d3f efb7 803f 5ad2 7e3f abe4 7d3f
000001f0: c48c 803f 0000 803f 0999 7f3f 06e4 7d3f
0.9930547 1.0006754 1.0021017 0.99329513 0.9918888 0.99849063 1.0063529 1.0123719
0.9996451 1.0097989 0.9960378 1.0053648 1.0078549 0.9994158 1.0008345 1.0
1.0098058 1.0043097 0.9891893 1.0 0.99206233 0.9998668 1.0108393 1.0009191
1.0075457 1.0053091 1.0053271 1.0124727 1.0085162 1.0 1.0154141 1.0
1.0 1.0104896 0.9985913 1.0000755 1.0054349 1.0112898 1.0 0.99512345
0.995184 0.99246335 0.99432194 0.9901836 1.0 1.0025547 1.0 1.0
1.0079192 0.99304056 1.0141338 0.9967289 0.99847245 1.0025923 0.9906424 0.9941623
0.9918916 1.0 1.0 1.0014296 0.99182075 0.9960836 0.99964046 1.0044918
1.0111827 0.99962354 1.0047907 1.0 1.0005327 0.99494374 0.993849 0.99165386
0.9917959 1.0040574 1.0052749 1.0 0.9991153 1.0073404 1.0 1.0015626
1.0124738 0.99098057 0.998766 0.99112064 1.0004407 1.0105726 1.0 0.9937641
1.0 0.9988109 1.0 1.009356 0.9953118 1.0036266 0.98775834 0.99477553
1.007871 1.0057421 1.0 1.0 1.0 1.0 1.0 1.0093967
1.0106465 0.9881121 1.000664 1.0 1.0 0.9972883 1.0106319 1.0003151
0.9871006 1.0 1.0 1.0042162 1.0098726 0.98940855 1.0 0.9947516
0.9891695 1.0056132 0.9953972 0.99177045 1.0042958 1.0 0.9984289 0.9917606

bn1.bias f4 [128]
00000000: bc24 fdbb 36f8 383a bc24 593b d508 2eba
00000010: dfd5 38bc c810 bdba 4336 45bb 39cc 2c3c
00000020: cbeb 263a 2bdd 273c eb78 5cbb b36d 513c
00000030: ee6b b13b 34e2 a83a 87ba 12bb 0000 0000
00000040: bd11 073c 9c1e 933b 230a 1abc 0000 0000
00000050: e1f5 f7bb 4173 aabb 803e 1d3c d76c 673a
00000060: f70f ffba fe6a 0c3b 80db fe3b e0fa 2d3c
00000070: abcc 053c 0000 0000 4612 713c 0000 0000
00000080: 0000 0000 6fad 3d3c 921f b0bb 28c7 f2ba
00000090: aa2a bf3b 9048 3e3c 0000 0000 ad29 0f3b
000000a0: 48b5 a7bb 17e6 eebb 2eb5 bfbb c45b 35bc
000000b0: 0000 0000 4f6a 8f3b 0000 0000 0000 0000
000000c0: bc79 f53b 0a9c bcbb 1c45 7e3c 7c0e 55bb
000000d0: b216 bbba 419e 2f3b 783b 35bc 67fa 37bb
000000e0: b536 f4bb 0000 0000 0000 0000 ebc7 ea3b
000000f0: 4fb7 46bc 160d d3bb f28c 983a 71b2 243c
00000100: fec4 253c d802 95b9 4223 9b3b 0000 0000
00000110: 4619 4d3b 534f 99bb fa59 b4bb 5fff 16bc
00000120: 5e54 05bc e3ee 0bbb e2a4 2b3c 0000 0000
00000130: eaf1 b0bb 5423 e03b 0000 0000 8f59 063b
00000140: 2d2c 453c 9bbb a2bb 8487 0a3b 63bb 0abc
00000150: c0d3 1f3a 4552 063c 0000 0000 8025 c5bb
00000160: 0000 0000 fe8a ad3b 0000 0000 7793 983b
00000170: 1e72 adbb 4fe4 ed3a d67c 7bbc 2946 69bb
00000180: 872f 293c a22d ba3b 0000 0000 0000 0000
00000190: 0000 0000 0000 0000 0000 0000 5789 b43b
000001a0: df0f 2d3c 0690 28bc 88f0 413a 0000 0000
000001b0: 0000 0000 a42b 53bb ced4 353c fc92 44bb
000001c0: dbff 39bc 0000 0000 0000 0000 c123 7a3b
000001d0: cd60 473c 6e92 16bc 0000 0000 9b98 b8bb
000001e0: dfb9 27bc 0423 d13b febe 93bb aa6c e5bb
000001f0: 27b3 8e3b 0000 0000 9182 90bb 5dca 1dbc
-0.0077253263 0.0007056029 0.0033133468 -0.00066388893 -0.01128146 -0.0014424557 -0.0030092157 0.010546737
0.00063675334 0.010245602 -0.0033641409 0.012782502 0.0054144775 0.0012884797 -0.002238901 0.0
0.008243975 0.004489733 -0.009401831 0.0 -0.007567153 -0.0052017276 0.009597421 0.0008828169
-0.0019459714 0.0021426077 0.0077776313 0.010618895 0.008166472 0.0 0.014713829 0.0
0.0 0.011576994 -0.005374857 -0.0018522488 0.0058339434 0.01161398 0.0 0.002184491
-0.005118046 -0.0072906124 -0.0058504557 -0.011069242 0.0 0.0043766866 0.0 0.0
0.0074913185 -0.005755906 0.015519407 -0.0032509854 -0.0014273732 0.0026797208 -0.011061542 -0.0028072835
-0.0074528106 0.0 0.0 0.0071649454 -0.012128665 -0.006440769 0.0011638685 0.010052309
0.010117767 -0.00028421613 0.0047344277 0.0 0.0031295582 -0.0046786456 -0.00550389 -0.009216159
-0.0081377905 -0.0021352104 0.010476323 0.0 -0.005399932 0.006840149 0.0 0.0020500158
0.012034458 -0.004966212 0.0021137903 -0.008467528 0.0006096922 0.0081983255 0.0 -0.0060164332
0.0 0.00529611 0.0 0.004656251 -0.005293145 0.0018149706 -0.015349587 -0.0035594797
0.010326273 0.0056817094 0.0 0.0 0.0 0.0 0.0 0.0055095362
0.010562866 -0.010288244 0.00073982077 0.0 0.0 -0.0032222057 0.0110981 -0.0029994836
-0.011352505 0.0 0.0 0.0038168284 0.012169075 -0.009190185 0.0 -0.0056334264
-0.010237186 0.006382348 -0.004508852 -0.007001479 0.0043548527 0.0 -0.004410096 -0.009630767

fc2.weight f4 [128, 128]
00000000: 859b d5bc b876 e2bc 0181 99bd 2b29 0c3c
00000010: 2223 463d 2184 583d 7f7f 813d 14c7 6a3d
00000020: 09d6 a1bd 5ab7 84bd 9aba 613c 1247 6fbd
00000030: 6fc5 7b3c 3cfc b63d f53d 2a3c 0822 aebd
00000040: 2b48 af3c 0517 e4bc 52fd c9b9 bac4 933d
00000050: af9a 2bba cb4a 213d adb0 493d 015a 053d
00000060: e84e 90bd 7fce 71bd d000 173c 7956 783d
00000070: ac88 cabc d43b a4bd 9afc 403c 0fbe f83c
00000080: 2633 9d3d 1e5e 4fbb 48e7 5dbd 103f 93bd
00000090: 0cd1 2ebd 88cb 313d 0ef6 86bd 7af0 3dbd
000000a0: 5e9e 6ebc 706a bbbd 10ba 913c 56b7 003c
000000b0: d1b2 82bd 7a65 833d 0eb4 cdbc 4d1c 51bd
000000c0: 570b 9d3d f9ea 523d f308 b2bd 8c4e 9ebd
000000d0: 997b 533d 4f51 57bd 3388 6b3d 6f85 abbc
000000e0: eec3 afbd 6b85 1a3d 7258 febc a62a 90bc
000000f0: f33b 22bd 2024 563d 1853 80bd 28d8 043c
00000100: d9f9 d43c 3748 e63c f4e1 d53c 654c 1f3d
00000110: f130 863d eaed 19bd ce69 c93c ef83 65bd
00000120: 7c1b 38bc f041 9e3d d4a2 4d3d 265a 88bd
00000130: f356 d0bc fb78 85bc fa67 98bd c3c3 4bbd
00000140: 68f6 873b 25ff 81bd d5f6 883d 8a20 e63c
00000150: cd32 63bd c86b 983d 9592 78bd 5c7f 52bd
00000160: 5b99 a3bd 6d42 a3bd b111 a83d 770e afbd
00000170: 64f5 2e3d e2d9 2ebd 7555 8e3d f070 de3c
00000180: 1d8c 6cbd 1e6f 8dbd 387e b53c f453 aa3d
00000190: fdff aebb 9c06 393c 1cf3 ecbc afc6 4cbc
000001a0: c592 923d 8ef7 973d b4fb 2abd 25c9 b1bd
000001b0: 46cd 933d 42bf bfbc 572c 67bc 6d3d 01bd
000001c0: 9635 383d 88fb 8ebd 24ec 72bd 91ce a73d
000001d0: e3eb 863d 72c8 fe39 07e5 263d e883 37bd
000001e0: b84f aebd 586d 4fbd 45e8 523d d46d 7f3b
000001f0: 71a7 8abc e396 793d 8876 983d 75e3 a9bc
00000200: dba5 7b3c 8bb9 8dbc 6593 ad3d fcd8 923d
00000210: 7ccc e0bc 9f18 0b3d f2b6 20bc 13f9 a4bd
00000220: 8a16 58bb 1a28 8c3d 5957 6d3c 1630 b0bb
00000230: 4e76 963d c619 433d e333 333d 8388 033c
00000240: ca08 61bc 0204 a43d c5df 80bd c147 753d
00000250: 7129 133d 29d1 eb3c 7a7a 6a3d 4f76 8fbd
00000260: f59c 8abd 3b2e 93bd 338a 4bbc feda 05bd
00000270: 6633 553d 7f25 ecbc 3040 91bd 9fd0 6bbc
00000280: 5d57 a8bd 1414 263d 9cd6 2f3b ab9d 61bc
00000290: 2366 80bd f379 d93c 4e0a aabd 85d4 bb3d
000002a0: dbb7 5b3c 8e12 9fbd 0ba7 383d 3a21 693c
000002b0: 8533 763d 46cd 90bc 381d 843d fae3 93bc
000002c0: 52b0 8dbd 9fca 4bbc df1b 6cbd 775e 133d
000002d0: 4cb6 82bc 842d de3c 3697 b63d ac63 983d
000002e0: 9094 4bbd 2dde 4a3d 996a 91bd 4074 10bd
000002f0: cdc5 933d 5d31 b53c f85e 83bd 8e4b 333d
00000300: 249b 713d b0f6 6b3d 6481 4ebd e80c 5fbd
00000310: 8105 a4bd 86c2 3abd 0fb5 a0bd 8186 bb3d
00000320: 7c8a 863d 4c46 89bd 3ea8 b73d bfb4 bb3c
00000330: 8b21 0dbd 4dc1 1f3d 252c c73c a38f af3d
00000340: 829a 733d a919 9d3d 8511 a43d a322 a8bb
00000350: 5c22 443d 206f 9f3d 294b 053c c7c1 68bd
00000360: c9da 933d e963 133d b8d2 8fbd dd79 b0bc
00000370: 1b5e 0f3d 56ed 5abd 1633 91bc 66f4 983c
00000380: 55bb 28bc 7b76 9c3d 67de be3c 10ee 8ebd
00000390: d95e fbbc 2dc2 66bb 4cbc b03d 6ffa 603d
000003a0: c7f7 653d be58 01bc d6c7 e0bb 29d7 8b3c
000003b0: 8471 2abd 893b 23bd dfe7 1c3c 10c0 ecbb
000003c0: 15ab bebc bfe3 883d 83e8 8cbd 8952 95bc
000003d0: 8f2d 4cbc 1f21 85bd 4d77 8fbc c88d b83d
000003e0: afe7 bf3d ebd4 60bd dab8 803d 1740 a43d
000003f0: b56f 2abd 7066 2b3d b24f 4b3d 08e6 6fbd
-0.026075134 -0.0276445 -0.07495309 0.008554737 0.04837335 0.052860383 0.06323146 0.057318762
-0.07902152 -0.06480284 0.013777399 -0.058417387 0.015366896 0.08934829 0.010390748 -0.08502585
0.021396717 -0.027843008 -0.00038526446 0.07215257 -0.0006546182 0.03937797 0.049240757 0.032556538
-0.070463 -0.05903482 0.009216502 0.06062934 -0.024723373 -0.08019224 0.011778975 0.030364064
0.076757714 -0.0031641792 -0.054175645 -0.071897626 -0.04267983 0.043406993 -0.065899 -0.046371914
-0.014564125 -0.09151161 0.017788917 0.007856211 -0.06381763 0.064158395 -0.02511027 -0.05105238
0.076681785 0.05149362 -0.08693113 -0.077298254 0.051631544 -0.052567776 0.057502937 -0.02093765
-0.085822925 0.037724894 -0.031048033 -0.017598461 -0.039607953 0.052280545 -0.06265849 0.008108176
0.025998043 0.028110607 0.02610872 0.038891215 0.065523036 -0.03758041 0.024586584 -0.056034025
-0.011237022 0.0772742 0.050204113 -0.066578194 -0.025432086 -0.01629304 -0.07441707 -0.04974724
0.004149247 -0.06347493 0.066877045 0.028091688 -0.05546837 0.07442433 -0.060686667 -0.05139099
-0.079882346 -0.07971654 0.08206499 -0.08547681 0.04271449 -0.042688258 0.069498934 0.027153462
-0.05775081 -0.069059595 0.022154912 0.08316794 -0.005340575 0.01129308 -0.028924517 -0.012498542
0.071569 0.07420264 -0.04174395 -0.086809434 0.07216887 -0.023406629 -0.014109693 -0.03155272
0.04497298 -0.069815695 -0.059307232 0.08193696 0.065879606 0.00048596 0.04074576 -0.04480353
-0.08511299 -0.050641388 0.05149104 0.0038975375 -0.016925545 0.060934912 0.07444483 -0.020738343
0.015359367 -0.017300388 0.08475379 0.07170293 -0.027441256 0.033959027 -0.009809243 -0.0805532
-0.0032972419 0.06843586 0.014486157 -0.005376826 0.073467836 0.047632 0.043750655 0.008028152
-0.013735006 0.08008577 -0.06292681 0.059882883 0.035928193 0.028786259 0.05724571 -0.070049874
-0.067682184 -0.07186552 -0.012423086 -0.03267955 0.05205097 -0.028826473 -0.07092321 -0.014393001
-0.08219788 0.04054649 0.0026830798 -0.013770501 -0.06269481 0.026547408 -0.08302747 0.09171394
0.013410534 -0.07767211 0.04508118 0.014229113 0.060107727 -0.017676007 0.064508855 -0.018053044
-0.06918396 -0.012438445 -0.057643767 0.03597876 -0.015956067 0.027121313 0.0891556 0.07440886
-0.049702227 0.04952829 -0.0710041 -0.035267115 0.07215462 0.022118265 -0.06414598 0.043773226
0.058985844 0.057608306 -0.050416365 -0.054455668 -0.08008862 -0.04559567 -0.07847034 0.09156514
0.065693825 -0.06702861 0.089676365 0.022913335 -0.034455817 0.039002705 0.024313042 0.085723184
0.059473522 0.0767091 0.08011154 -0.005131082 0.04788433 0.07784867 0.008135595 -0.056825425
0.07219464 0.035983954 -0.07022613 -0.021542484 0.035001855 -0.053448997 -0.017724555 0.018671226
-0.01029857 0.07639786 0.02329941 -0.069790006 -0.030684875 -0.0035210953 0.08629665 0.054926332
0.056144502 -0.007894693 -0.00685976 0.01707037 -0.041612163 -0.0398517 0.009576767 -0.007225044
-0.023274938 0.06684064 -0.068802856 -0.018227832 -0.012462034 -0.06500458 -0.017512942 0.090114176
0.09370362 -0.054890554 0.06285258 0.08020037 -0.04161044 0.04184574 0.04963655 -0.058568984

fc2.bias f4 [128]
00000000: 9f42 b8bc d1ac 83bd 48d3 99bd a58a 703d
00000010: 508c 12bc 59f9 1fbd 7d62 05bb 0b05 ee3c
00000020: 7c25 b7bd 6a98 c1bd 6070 093d b2c5 973d
00000030: 76e5 90bd 7e99 03bd 89db 87bd 944e b63d
00000040: 25c0 6c3d e0e3 72bd d755 493d bf00 cd3b
00000050: 21ff 50bb dcdd 87bd 4b7e 9dbb b54c 983d
00000060: 00ca f53c 5e06 7e3d 47c5 b93d 4e0f e53c
00000070: f245 443d a750 b3bc 36aa 713d 4a7f a33a
00000080: 5cbf 963d a2c9 02bd a928 763d 7829 4cbd
00000090: ac95 993d da18 1bbd c509 6c3d 364c acbd
000000a0: 050a 483d 5b5d 593c 7f1a a13d d3b1 ccbd
000000b0: 8f30 ed3c 44d2 d0bc 4d14 66bd 41d1 71bd
000000c0: 124f ec3c 2971 7a3d 1ab3 0b3d 7723 8aba
000000d0: df03 773c 231e 2cbc 08b5 89bd a064 6b3d
000000e0: 250e f43c bbb0 0abc 3beb 34bd db65 9d3d
000000f0: c065 aab8 15ba 5c3d 2dbb 923a 3cfa 94bd
00000100: 2bd4 183d e88d 1bbc 5080 9a3d 27b2 553d
00000110: b6e9 603d 3be5 5ebd 8bff 34bc 7691 88bc
00000120: 72c0 a83c ddb9 2cbd 0d98 db3c 1b9f 11bb
00000130: d050 4d3d 1519 a1bd 777b 0d3d 1406 a13c
00000140: 9684 a4bd 1bc2 133d c653 b43d d54b 813d
00000150: 56c6 9e3d e5d2 08bc 2c42 82bd b3c8 4abd
00000160: b8a7 af3d ca3b 803d 7df2 88bc 9c57 5cbd
00000170: 4973 373d d5ab 1ebd 33b6 5c3d e136 893c
00000180: bed3 a03d 3bf6 2d3c 6781 aebd 8cbb 873d
00000190: 5ef7 763c a45e adbd a43b 903d a1a4 2c3c
000001a0: a2d8 e9bc 0458 46bd 596a 94bd a841 33bd
000001b0: 6092 36bd 5dc6 4fbc 2e5c b1bd 3b2f e0bc
000001c0: 91ea d43c 711b 37bd e38a 8c3d 5b6c c9bc
000001d0: 1947 8ebd c991 153c 0a31 0c3d 9ded f4bc
000001e0: 3742 1cbd ef5e 68bd 9998 8bbc a740 a83d
000001f0: 6678 4cbd d985 b63c c363 64bd c8fa 833c
-0.022492705 -0.064294465 -0.07511002 0.05872597 -0.008944586 -0.039056156 -0.0020352893 0.029055139
-0.089426965 -0.09452899 0.033554435 0.07410754 -0.07075016 -0.032128803 -0.0663367 0.08901706
0.05780043 -0.05929935 0.04915413 0.0062561925 -0.003189035 -0.06634113 -0.004806315 0.07436506
0.030003548 0.06201779 0.09070831 0.0279614 0.047918268 -0.021889044 0.059000216 0.0012473848
0.07360718 -0.031930573 0.06009737 -0.049844235 0.07499251 -0.037865497 0.057626504 -0.084129736
0.04883768 0.013266887 0.07866382 -0.09994855 0.028953819 -0.025490887 -0.056171704 -0.05903745
0.028846297 0.061143074 0.03410635 -0.0010539134 0.015076607 -0.010505232 -0.06723982 0.05746901
0.0297919 -0.008464987 -0.044169646 0.07685443 -8.125184e-05 0.0538884 0.0011194699 -0.07274291
0.037311714 -0.009494282 0.07544005 0.052171852 0.054910384 -0.05441783 -0.011047254 -0.016670924
0.020599578 -0.04216944 0.026805902 -0.0022220078 0.050125897 -0.07866112 0.034541573 0.019656219
-0.08033101 0.036073785 0.08805041 0.06313292 0.07752673 -0.008351062 -0.063602775 -0.049507808
0.08576912 0.06261404 -0.01671719 -0.05379449 0.04478768 -0.03873809 0.053884696 0.016749801
0.078528866 0.010617788 -0.08520775 0.066275686 0.015073625 -0.08465317 0.070426255 0.010537297
-0.028545681 -0.048423782 -0.07246847 -0.043763787 -0.044573188 -0.012681571 -0.0866016 -0.027366271
0.025990756 -0.044703905 0.06862428 -0.0245878 -0.069471546 0.009128996 0.034226455 -0.02989846
-0.038149085 -0.05673116 -0.017040538 0.082154565 -0.04991951 0.02228062 -0.055759203 0.016110793

bn2.weight f4 [128]
00000000: 42c7 7c3f 9e56 7c3f c5b2 7c3f 6589 7d3f
00000010: 9983 7e3f 030b 803f 248f 7c3f 9217 7d3f
00000020: dd9c 7c3f ebe0 7d3f 6338 7e3f 6c5c 7c3f
00000030: b8bd 7c3f 1b62 7c3f 00dd 7d3f b6ad 7e3f
00000040: 1d4a 7c3f 836f 7c3f 7227 7c3f 4c0b 7e3f
00000050: ca4d 7c3f aaf9 7d3f 9edb 803f 7760 7e3f
00000060: b586 7b3f 37a3 7c3f 8ccd 7e3f 4ebe 7d3f
00000070: 7a58 7d3f 2c09 7c3f c38f 7e3f c489 7c3f
00000080: c3cd 7b3f 72ac 7c3f 62ae 7c3f 307d 7e3f
00000090: fa45 7c3f 4bea 7f3f 0d67 7d3f 0505 7d3f
000000a0: 88ab 7c3f b4e7 7d3f 1efe 7c3f ffd1 803f
000000b0: 60a2 7d3f 4a07 7c3f be32 7d3f 65bc 7d3f
000000c0: 00e2 7e3f f0a7 7c3f 227e 7d3f 53e2 7d3f
000000d0: b9ed 7e3f d797 7e3f 0195 7e3f fd43 7e3f
000000e0: 3bbc 7d3f 2ba2 803f 4c12 7e3f 8ddb 7d3f
000000f0: 12f5 7d3f 69f2 7d3f 52d9 7b3f 498b 7c3f
00000100: 8f62 7c3f b688 803f 7415 7c3f d879 7c3f
00000110: 5263 7d3f 0a0a 7d3f 5313 7d3f ed64 803f
00000120: de10 7d3f 1704 7d3f 9062 7c3f 0cc7 7c3f
00000130: ce8c 7c3f b262 7e3f 0113 7d3f c6b3 7d3f
00000140: d9a7 7d3f 9c9d 7e3f 7a29 7e3f 4de1 7c3f
00000150: c48c 7d3f f355 7d3f cbe5 7f3f 0fb6 7b3f
00000160: e85c 7f3f 63fd 7b3f 3b8b 7d3f 041f 7c3f
00000170: e8ac 7c3f 00f3 7d3f a17d 7d3f aca4 7c3f
00000180: 3716 803f 2ced 7c3f 6d09 803f b2d9 7c3f
00000190: 85c3 7c3f 1194 7d3f 487d 7c3f ad1e 7d3f
000001a0: d70d 7e3f cfbe 7c3f 6eab 7d3f 0000 803f
000001b0: 06c8 7c3f 4dc7 7f3f aa3f 7d3f 60ba 7b3f
000001c0: c37e 7c3f bb53 7c3f 2dc9 7c3f b6f0 7b3f
000001d0: 35e6 7b3f 58e1 7b3f 0000 803f cd14 7e3f
000001e0: 8b70 7d3f 2a56 7c3f 234e 7c3f b340 7d3f
000001f0: bd22 7d3f 97a6 7c3f bdea 7c3f 8907 7e3f
0.98741543 0.9856967 0.9871028 0.9903777 0.9941955 1.000336 0.98655915 0.9886409
0.98676854 0.9917132 0.9930479 0.98578525 0.9872699 0.985872 0.99165344 0.9948381
0.9855059 0.98607653 0.9849769 0.9923599 0.98556197 0.9920908 1.0067022 0.99365944
0.9825242 0.98686546 0.9953239 0.99118507 0.9896313 0.98451495 0.9943811 0.98647714
0.9836084 0.9870063 0.9870359 0.9940977 0.98544276 0.9996688 0.9898537 0.98835784
0.98699236 0.99181676 0.9882525 1.0064086 0.9907589 0.9844862 0.9890555 0.9911559
0.995636 0.9869375 0.9902059 0.9917347 0.99581486 0.9945044 0.9944611 0.9932249
0.9911534 1.004949 0.9924667 0.9916313 0.9920207 0.99198014 0.9837848 0.9865003
0.9858789 1.0041721 0.98470235 0.9862342 0.98979676 0.98843443 0.9885761 1.00308
0.9885386 0.98834366 0.98587894 0.9874122 0.9865235 0.9936935 0.9885712 0.9910244
0.9908424 0.9945924 0.9928204 0.9878128 0.99042916 0.98959273 0.9996001 0.98324674
0.9975114 0.9843351 0.99040574 0.98484826 0.98701334 0.99198914 0.9901982 0.9868877
1.000678 0.98799396 1.0002877 0.98769677 0.9873584 0.99054056 0.98628664 0.9887493
0.9923987 0.9872865 0.99089706 1.0 0.9874271 0.99913484 0.9892527 0.9833126
0.98630923 0.9856526 0.9874447 0.9841417 0.98398143 0.9839072 1.0 0.9925049
0.9899985 0.98568976 0.9855673 0.9892685 0.9888113 0.98691696 0.9879568 0.9923025

bn2.bias f4 [128]
00000000: f472 4abc fa6e 52bb 8c4e 01bc b94f 12bc
00000010: 148e d2bb 3e9f cd3a 0cfc 74bc 243c 5ebc
00000020: d4ff 43bc 9952 d6bb bb4b 72bb 231f 7bbc
00000030: 049f 56bc f10d 71bc 4edf 84bb 6d28 3dbb
00000040: 8259 81bc 2d15 62bc 9bef 83bc bcac c5bb
00000050: 3605 36bc 1cac 09bc 43f2 ed3b b790 1fbc
00000060: 7572 6fbc 1cbe 56bc 0d56 c6bb 356d 3abb
00000070: 8c70 3abc ac54 81bc bb73 c1bb 2d5b f0bb
00000080: d75f 6abc 24b9 27bc f14c 84bb 0d23 41bb
00000090: cb15 79bc 8956 353a 2811 a0bb da67 44bc
000000a0: 88a4 55bc a6b9 0dbc 46e5 44bc c5fa f739
000000b0: 062d 2bbc f924 23bc 2529 17bc 15d7 fdbb
000000c0: aea1 87bb b4c9 60bc 6a1b fcbb 4832 f3bb
000000d0: 744c 86bb e187 15bc 5c6d 01bc cce2 9bbb
000000e0: 86f0 bfbb 508e ab3b 6e7e cfbb 10a0 e0bb
000000f0: 7756 d1bb 808c ffbb 3c09 55bc d5aa 44bc
00000100: 580c 42bc 30b8 883b 7720 84bc e84b 4fbc
00000110: b750 16bc 7ca5 73bc 7496 52bc e8d0 7c3b
00000120: ef81 fcbb 4e73 57bc 88b7 75bc 030b 33bc
00000130: 9789 49bc 1796 96bb 4c01 50bc f4a2 90bb
00000140: 5541 d0bb 2510 19bb 4949 28bb d0ea 46bc
00000150: 42cb 33bc 9b06 ffbb 0f74 09bc 9332 8abc
00000160: b40e 18ba 04cc 80bc 80aa ebbb 0b61 59bc
00000170: 9781 68bc 6da3 8dbb 06cf bebb d565 f0ba
00000180: 34c2 27ba 315e 54bc 18fe 9abb d94f 33bc
00000190: af66 4cbc bd71 08bc d2de 54bc 03da 4abc
000001a0: 3bb3 e6bb b406 44bc 07e9 d3bb 0000 0000
000001b0: 4b45 f6bb 4c31 1d3b 84df 57bc f5ab 79bc
000001c0: b1cd 6abc 6f01 5fbc 9ad6 6cbc f058 61bc
000001d0: 4048 80bc 854e 7bbc 0000 0000 ab8a efbb
000001e0: 690e 26bc 9de6 65bc 0516 64bc 53f7 eabb
000001f0: ae3e 2cbc 0afc 47bc 6a26 f3bb 51ca d7bb
-0.0123565085 -0.0032109604 -0.007892262 -0.00893014 -0.0064256284 0.0015687717 -0.014952671 -0.013564143
-0.01196285 -0.006540608 -0.0036971408 -0.015327248 -0.013099436 -0.014712797 -0.0040549403 -0.0028863207
-0.015789751 -0.013798994 -0.016105464 -0.0060325544 -0.011109641 -0.0084028505 0.007261546 -0.009739093
-0.014614691 -0.013106849 -0.0060527385 -0.002844644 -0.011379372 -0.015787445 -0.0059036887 -0.0073350878
-0.014305077 -0.010237012 -0.0040374924 -0.0029470355 -0.01520295 0.0006917497 -0.0048848577 -0.011987651
-0.013039716 -0.008650219 -0.012017554 0.0004729835 -0.010447746 -0.009957545 -0.009226118 -0.007746587
-0.004139147 -0.013719965 -0.0076936977 -0.0074217655 -0.0040984694 -0.009126634 -0.007899608 -0.004757261
-0.00585753 0.005235471 -0.0063322103 -0.0068550184 -0.0063884812 -0.0077987313 -0.01300269 -0.01200362
-0.011843763 0.0041723475 -0.016128762 -0.012652375 -0.009174517 -0.0148709975 -0.012853254 0.0038576666
-0.007705919 -0.013150049 -0.014997371 -0.010927918 -0.01230087 -0.004595529 -0.012695622 -0.004413957
-0.0063554444 -0.002335557 -0.0025678447 -0.012140945 -0.010973753 -0.00778277 -0.008389487 -0.016869819
-0.0005800531 -0.015722282 -0.007191956 -0.013267766 -0.014191053 -0.0043224604 -0.005823019 -0.0018340895
-0.0006399483 -0.01296191 -0.0047299974 -0.01094433 -0.012475654 -0.008327899 -0.012992578 -0.01238108
-0.007040409 -0.011964489 -0.006466988 0.0 -0.0075155846 0.0023985682 -0.013175849 -0.015238752
-0.014331267 -0.013611182 -0.014455462 -0.0137541145 -0.015659451 -0.015338545 0.0 -0.0073102317
-0.010135272 -0.014032033 -0.0139212655 -0.0071705966 -0.010512991 -0.012206087 -0.007420351 -0.0065853973

fc3.weight f4 [1682, 128]
00000000: 7dd7 55bd d8d7 42bc 8311 893c 009e e2bc
00000010: f461 773d 71c3 b1bd 1f8a 45bd c74b 963d
00000020: 833d 21bd f0ee cebb d88a d93b b480 40bd
00000030: 155e 82bd 8a18 0d3d d425 b13c 6e42 933d
00000040: f8a3 a8bd 86bc ab3d bb46 723d 5611 a2bc
00000050: c1bb 533c 3a95 4b3d 7740 3cbd bfb1 86bd
00000060: d692 a93d 40ba afbd 0cd3 b1bd 6d4b 92bd
00000070: 9a3e b3bd 1a6a 00ba 5314 903d 54e5 6d3d
00000080: 956c 27bd 6872 37bd 7c16 4c3c eeb1 85bd
00000090: 95f3 e63b c0a5 093d 36d8 6d3d d52d 113d
000000a0: a51b ac3b a3af b0bd bf9c 263d cb5d 91bb
000000b0: c16f 8dbd d23d 473c 64d9 5b3d e805 bcbb
000000c0: d702 3bbd cc15 88bd f19a ad3c c5aa a83d
000000d0: 8319 0fbd f418 a8bd a5e6 f13b b9d9 613d
000000e0: e6e6 81bc 57af cebc 8ae2 3bbd 6ea8 a33c
000000f0: f843 70bd 35a4 b4bd 05c5 04bd 2613 4cbd
00000100: 4508 2338 5ad0 863d c2a8 973a 22a9 a5bd
00000110: 1826 8b3d 25aa 6cbb 07df 803d 5d7e 743d
00000120: 17e1 1a3d 3c88 3e3d 2251 bf3c e1d5 783c
00000130: 3cf1 aa3d 321a b43d 5601 a43d fa0d a3bd
00000140: bbea 85bd dc32 9dbb f8a2 473d 869e 72bd
00000150: a4d8 a23d ea10 44bd 7b7a 8e3d bb38 68bd
00000160: 77a7 973d 0b54 05bc 5373 893d f566 513d
00000170: b461 65bd 1f0c e53c 127e 733c 69ab c53c
00000180: a640 e9bc 4e35 a63d cb39 0dbd 0a16 a73d
00000190: 52ac eabb c87e bb3c a27d a3bd 0a1f 9dbc
000001a0: 65f1 363d 842c 2abd 4a4d 2e3d f40e e9bc
000001b0: 972c 483d efe3 803d 51d2 513d 7ae5 9abd
000001c0: fa4c 76bd 6cca 86bd 7112 a63d 13a2 c33c
000001d0: 8377 11bc 546d 9d3c e2fc aebd e64c 133d
000001e0: d519 7cbd e5e9 ec3c c170 c33a 57c8 c03c
000001f0: 4b36 8fbd 3877 9f3d 950a a93b c12c a7bd
00000200: 8a9b e8bc 8f13 153d 0799 4b3d 5902 4d3c
00000210: 8fb7 fd3c 67cf b1bd 5752 de3c bdee bdbc
00000220: b3da b0bc 941b 98bd 3ba1 373d 43d4 423c
00000230: 8b51 91bd 73ea 5fbc eac0 ad3d d9fe 78bb
00000240: f454 3f3d 709f af3b 0123 023d 2d30 493d
00000250: 5a60 01bd f958 dd3b 9fd2 b23b b095 963d
00000260: 1182 83bd 86f4 793d 7ff6 89bd 063a 183d
00000270: 781d 7a3d 5527 35bd 81a3 2f3a 6881 8cbd
00000280: ca7d 543d e7bb f23c 4135 a03a be2e f3bb
00000290: d8d2 5c3d 37f8 03bd 2139 af3d 8939 893d
000002a0: 0460 c5bc 76df b1bd a911 d63c bc85 9a3d
000002b0: 81ba 19bd dc6e 53bc 521f 943d 57a3 b538
000002c0: 7825 1b3d ce29 03bd 20df 9e3c 5f1d 453d
000002d0: 5427 03bc 9e00 a33d 8e9a e23c 27c7 133d
000002e0: 1035 293d 4b21 6bbd 8664 6bbc df4e 7f3d
000002f0: 50d7 afbd d907 aebd ed75 8b3d 473d ab3d
00000300: 6034 da3b 3ff9 aa3d d056 493d 4029 a9bd
00000310: af63 67bd d9d3 92bd b9cc 713d 3049 3f3d
00000320: 47f7 88bd 3995 02bd 3a81 a6bd fd00 23bd
00000330: 28b9 1fbb 7a24 a33d 7ae6 8a3c e8ec 9c3d
00000340: ba4e 4fbd b082 efbc 9c97 2cbd 6ef8 5ebd
00000350: f545 16bd 2b32 603d 212b ba3c 9622 473d
00000360: 4a78 a93d 48f5 f3bc 2d49 abbd 6415 02bd
00000370: 5964 5cbd fd4f d3bc d7b8 143d b1d3 04bd
00000380: 59b4 08bc 496f 0ebd 0bc0 95bd 5b89 20bc
00000390: 17f7 783d 104f f4bb 9640 773d c44b cb3a
000003a0: 87dd 873d 5533 173d 2eab 6bbd 8dd9 b3bd
000003b0: 4b17 91bd 1f7f aa3d c7dd a73d b296 32b8
000003c0: 1ca4 733d ef4f d9bc 086d 1b3c eac3 c13c
000003d0: 94b9 0e3d 30c0 33bd 9511 0cbd 5619 433d
000003e0: 9b1a 5b3d 0f91 113d d8ff 41bd 358c 95bd
000003f0: e20c 703d 494f a3bd c263 96bd 3e05 9fbc
-0.05220746 -0.0118922815 0.016731983 -0.02766323 0.06039615 -0.086798556 -0.048227426 0.07338672
-0.039365303 -0.0063151047 0.006638866 -0.04699774 -0.06365601 0.03444723 0.021624483 0.07190405
-0.082343996 0.08385567 0.059149485 -0.019783657 0.012923182 0.04970286 -0.045959916 -0.06576871
0.0827996 -0.08580446 -0.08682832 -0.071432926 -0.08752175 -0.0004898623 0.070351265 0.058080032
-0.040875036 -0.04478684 0.012456533 -0.06528078 0.00704808 0.033605337 0.058067523 0.0354441
0.005252319 -0.0862725 0.04067683 -0.00443623 -0.06906081 0.012160735 0.053674117 -0.005738009
-0.045657005 -0.066447824 0.021192046 0.08235697 -0.03493644 -0.082078844 0.0073822313 0.055139277
-0.015857171 -0.025230093 -0.04587034 0.019977774 -0.05865857 -0.088203825 -0.032414455 -0.04982295
3.886993e-05 0.06582709 0.001157068 -0.080889 0.06794375 -0.0036112156 0.06292539 0.059690822
0.03781232 0.046516642 0.023354117 0.015187711 0.08346793 0.08794059 0.08008067 -0.0796165
-0.06538912 -0.0047973227 0.048739403 -0.05923321 0.07951477 -0.047867693 0.06956955 -0.056694727
0.07404988 -0.008137713 0.067114495 0.051123578 -0.05600138 0.027959881 0.0148616005 0.024129586
-0.02847321 0.08115636 -0.034478944 0.081585005 -0.0071616555 0.022887602 -0.07982947 -0.01917984
0.044663806 -0.04154636 0.042554177 -0.028449513 0.04887065 0.06293475 0.051225964 -0.075633004
-0.060132004 -0.06581578 0.08108986 0.023880994 -0.0088785915 0.01921717 -0.08544327 0.035962008
-0.061548073 0.028920123 0.0014910923 0.02353303 -0.069927774 0.07786411 0.005158732 -0.08162833
-0.02839448 0.036395606 0.049706485 0.012512767 0.030971317 -0.08682137 0.027138872 -0.023185128
-0.021588659 -0.07427135 0.044831496 0.011891427 -0.07095631 -0.013666737 0.08484061 -0.0037993698
0.046711877 0.0053595826 0.031771664 0.04911821 -0.03158603 0.006754991 0.005457237 0.073527694
-0.064212926 0.06102421 -0.067364685 0.03716471 0.06106326 -0.044226963 0.0006700084 -0.0686062
0.051877774 0.029630614 0.0012222902 -0.0074213436 0.053912014 -0.032219138 0.08555818 0.06700427
-0.024093635 -0.086852 0.026131468 0.07545039 -0.03753138 -0.012904849 0.072325364 8.661177e-05
0.03787753 -0.03202229 0.019393504 0.048123714 -0.008004982 0.07959102 0.027661588 0.0360786
0.04131037 -0.057404798 -0.014367228 0.062331077 -0.085859895 -0.084975906 0.06809602 0.08361297
0.0066590756 0.08348321 0.049155056 -0.08259821 -0.05649155 -0.07169313 0.05903313 0.046700656
-0.066877894 -0.03188059 -0.08130117 -0.039795864 -0.0024371836 0.07965942 0.016955603 0.07662374
-0.05061219 -0.029237121 -0.042136773 -0.05443614 -0.03668781 0.054735344 0.022725644 0.048616968
0.082748964 -0.029780045 -0.083635665 -0.03175868 -0.053806636 -0.025794977 0.03630909 -0.032428447
-0.0083437795 -0.0347741 -0.0731202 -0.009798373 0.06078252 -0.007455714 0.06036433 0.0015510251
0.0663405 0.03691419 -0.057536297 -0.08781729 -0.07084521 0.08325028 0.081965975 -4.2578853e-05
0.05948268 -0.026527373 0.009486444 0.02365299 0.03484495 -0.043884456 -0.034196455 0.047631584
0.05349217 0.03553873 -0.047363132 -0.07302133 0.058606036 -0.07974107 -0.07343246 -0.01941168

fc3.bias f4 [1682]
00000000: f764 9a3d 1ab8 8bbd 1ffb 8f3d 411a 52bc
00000010: ce1c 803d 1964 b5bc b84c 72bd 9b26 a5bd
00000020: cd75 393c 56a9 7bbc d2aa 2dbd 63c0 b33a
00000030: 0cd9 a83d ecd7 1a3c f767 993d a591 a8bd
00000040: b2d7 a7bc 50a1 31bd 64bd 60bb 26c1 70bd
00000050: 3476 1d3d 6ce9 593d 6f0d 5fbd 1ce4 523d
00000060: 0704 943d 3716 663c 0ce9 923d e99f 03bd
00000070: d11d 3c3c a505 9cbd 23cf afbd 2576 08bd
00000080: fbdf 08bd ab7a a33c 3e6e 333d cbd7 f1bb
00000090: 2dba 1abb 884b 49bd a24d b1bd a124 9dbb
000000a0: 31c5 963d 88b4 6e3d 2c03 8fbd 2fb3 703d
000000b0: 9c7d 573d 41a8 233c fc7c 9dbd 883f 553d
000000c0: ef05 78bd 137d 8b3d d898 f43c acc0 9a3d
000000d0: 86a0 0d3d ca4d 0e3b 0e78 a4bd 186c 3abd
000000e0: 17ac 1ebd 413e fbbc 30b1 a8bd d387 a53d
000000f0: 4feb 9cbc 8550 a03d 71bf 69bc 9860 27bc
00000100: 57ee 3d3d ea47 44bd 4a2d 7ebc f1d2 133b
00000110: 0647 c53c 7e29 593d 0f6e afbd 955e 94bd
00000120: c1f0 b43d fa59 42bd 7b05 223d 8b4b 4b3c
00000130: 30b2 e83c 29ed 6d3d d92a 693d d391 ef3c
00000140: eb4e 85bd 21c2 8c3d 07ef 303d cccc 35bd
00000150: c582 89bd 35a1 5cbc e4aa 6c3d 9827 82bd
00000160: a88f 2cbd 4259 b13c 7494 a7bd 53b7 b8bc
00000170: 8eac 05bd c68b 16bd edba 98bd d453 543b
00000180: a3a8 973d 6216 463c 1875 df3c 782c 053d
00000190: 493c 1fbd 0feb 62bd dbad afba 7db6 4cbd
000001a0: 8dbd 743c 202d 95bd 666c dd3c 3639 37bd
000001b0: 7719 44bd 90b9 663c 0484 a73d c2df 8c3c
000001c0: 1fa9 17bd 8e50 f33c 1ae0 d8bc fe79 3a3d
000001d0: 02eb 27bd 4ee5 9cbd 14f4 ee3c 7c4c e23c
000001e0: 837d 333d 3b04 9cbd 6341 96bd 1341 0b3d
000001f0: 56ce 7ebd 6313 c43a 8770 af3c 0c93 edbc
00000200: 402d f9bb 10d5 863a 5ce0 66bd e361 42bd
00000210: 8c0a 5e3d 954b a5bd 6acb 573d efc6 edbb
00000220: 7e7b 8cbd f51e 5dbd c734 203d 1efa 943c
00000230: 835d 533d 5b7d 9abd b39f 0a3c 4daa 5d3d
00000240: 4edf 893c d3fc 92bd 3eb3 aebd c142 b13d
00000250: 11f5 4d3c 4d15 39bd f510 7bbc 9b36 d23c
00000260: eda8 193c 47e7 ab3d 6729 8c3c 4a1a 60bd
00000270: bd61 9b3c 8a25 b63c de39 2b3d e8d1 143d
00000280: ac78 87bd 958c 203d 7820 12bd 689b 4d3d
00000290: bee7 863d b71d 7fbd e8d1 e6bb 0993 3d3c
000002a0: 02c0 73bd 0898 523d 087a 323d a0e6 ec3c
000002b0: c106 1bbd d82f 17bc cd3d 033d af55 4e3d
000002c0: 2314 9f3c 32f3 5b3d 8ba1 1a3c 0ff8 14bd
000002d0: 0f82 113d 86c2 d23c ece5 023d ce89 62bd
000002e0: 6f40 35bc 8de7 e4bc fee1 9d3d f4ba a1bd
000002f0: 134e 513c d9f6 18bd ce66 9a3d a37d fe3a
00000300: 364f 4b3c 447d 843d 0a2c 70bc 5feb 843b
00000310: f928 b0bb c882 793d c0ed 943d f1bb 8a3c
00000320: 0cc4 97bc 67b7 063b 2a41 72bd 7efc 97bd
00000330: 609c 523d ae22 7d3d 14bf 933d 9ee3 213d
00000340: 6372 1c3d cb4f 0d3d a471 3a3d fddf e93c
00000350: e886 1dbd d203 8b3d 2fbc c2bb a6c7 acbd
00000360: aa98 2bbd 982b 7cbd df39 f03c a025 49bd
00000370: ef32 133d 57f5 b6bc 5451 a3bd f577 80bd
00000380: 98f8 653d 2b9c 2fbd e245 f2bc 64ae 613b
00000390: ec19 ebbb 6aeb a83d 163f 033d 4f78 043b
000003a0: 59e6 a8bd 7e32 9fbd f7a2 093d 9de2 a1bd
000003b0: 6c3d 5c3d 45fd 15bd 6c01 773d cc43 fcbb
000003c0: 9138 b4bd 25d2 a03c 6ee1 e03c bd68 923c
000003d0: 4ee8 97bd df79 343d 4755 a4bd 4f60 983d
000003e0: cb6b 343d 5bc8 97bc 2ee4 f73c 1ae3 57bd
000003f0: c66f 993d 7182 9bbd e370 7a3d aee9 1d3d
0.07538789 -0.06822224 0.070303194 -0.012823642 0.06255494 -0.022142457 -0.059155196 -0.08064004
0.01131959 -0.015360197 -0.042399235 0.0013713952 0.082445234 0.009450894 0.07490533 -0.082309045
-0.020488594 -0.04336673 -0.0034292573 -0.05877795 0.038442805 0.053201124 -0.05445617 0.051487073
0.07227331 0.014043382 0.071733564 -0.032134924 0.011481718 -0.07618264 -0.0858443 -0.033315796
-0.03341673 0.019955954 0.043806307 -0.007380461 -0.0023609505 -0.049144298 -0.086573854 -0.0047956263
0.0736183 0.058277637 -0.06983027 0.058764633 0.052610025 0.009988845 -0.076898545 0.05206254
-0.060552534 0.068109654 0.029858038 0.075562805 0.034576915 0.0021713846 -0.08030711 -0.045513242
-0.038738336 -0.030669333 -0.08236921 0.08082547 -0.019155173 0.07827858 -0.014266835 -0.010215901
0.046369877 -0.047920145 -0.015513727 0.002255615 0.024081718 0.053018086 -0.08565914 -0.072446026
0.08834983 -0.04744909 0.039556008 0.012408148 0.028405279 0.0580875 0.05692563 0.02924434
-0.06509193 0.06872965 0.043196704 -0.044384763 -0.067143954 -0.013466169 0.05778016 -0.06355208
-0.04212919 0.021649007 -0.08182612 -0.022548353 -0.032635264 -0.036754392 -0.07457528 0.0032398598
0.07405212 0.012090297 0.027277514 0.03251311 -0.03887585 -0.05539995 -0.0013403253 -0.049978722
0.014937771 -0.072839975 0.027029227 -0.044732295 -0.047875848 0.0140823275 0.08179477 0.01719654
-0.03702652 0.029701497 -0.026474047 0.045526497 -0.040995605 -0.07660924 0.02916912 0.027624361
0.04382087 -0.076179944 -0.0733669 0.033997606 -0.062208496 0.0014959391 0.021415962 -0.029000781
-0.007604271 0.0010286886 -0.05636631 -0.047456633 0.054209277 -0.08071057 0.052684225 -0.0072563807
-0.06859492 -0.0539846 0.039112832 0.018185671 0.05160285 -0.07543441 0.008460927 0.05411749
0.016830113 -0.07177129 -0.085302815 0.086553104 0.012570635 -0.04518633 -0.015323867 0.025660804
0.009378654 0.08393722 0.017109586 -0.05471257 0.018967504 0.022234697 0.041803233 0.036332995
-0.06614813 0.03919657 -0.035675496 0.050197035 0.0658717 -0.062284198 -0.0070440657 0.0115707
-0.059509285 0.05141452 0.04357341 0.028918564 -0.037848238 -0.009227715 0.03204136 0.050374683
0.019418782 0.053698726 0.009437929 -0.03636938 0.035524424 0.025727522 0.03195755 -0.055307202
-0.011062725 -0.027942443 0.0770912 -0.078969866 0.012774962 -0.037344787 0.0753914 0.0019416105
0.012409022 0.06469205 -0.014658937 0.0040563787 -0.005375978 0.06091574 0.0727191 0.01693532
-0.0185261 0.0020556094 -0.059144177 -0.07421206 0.051418662 0.06180065 0.0721418 0.039523713
0.038195025 0.034499925 0.045518532 0.028549189 -0.038458735 0.06787838 -0.0059428434 -0.084365174
-0.04189364 -0.06156501 0.02932447 -0.049108148 0.035937246 -0.022333784 -0.079744965 -0.0627288
0.05614528 -0.042873543 -0.029574338 0.003443622 -0.007174721 0.08248027 0.032042585 0.002021331
-0.0824706 -0.077733025 0.03360268 -0.07904551 0.053769514 -0.03661849 0.06030409 -0.0076985117
-0.08799852 0.019631455 0.027451243 0.017872209 -0.074173555 0.044061538 -0.08024078 0.074402444
0.044048112 -0.018528154 0.030260172 -0.052706815 0.07492022 -0.07593239 0.061142813 0.038552932
